rl/src/models/base_ppo/player_2_ppo_policy.pt (torch, 147125 bytes, 7 tensors)

fc1.weight f4 [128, 144]
000000 0e 07 ce 3b 78 e0 84 bc 55 e0 b3 bc 04 1b ee 3c
       0.006287462 -0.016220316 -0.021957556 0.029065616
000010 5a d2 e8 bc d2 96 5f 3d 7a c6 a2 3d cf e5 70 ba
       -0.028420616 0.054587193 0.07948013 -0.00091895176
000020 c0 a3 12 bd fc 70 9e 3d eb e5 18 3b 2d 59 94 3d
       -0.035800695 0.07736394 0.00233304 0.072435714
000030 40 08 52 bd 70 7e 94 3d f3 f5 19 bd a3 7f 2e 3d
       -0.0512774 0.072506785 -0.03758807 0.042602193
000040 19 85 ff bb 41 07 81 bd 0a 24 8b bc 7a f5 4e bd
       -0.007797849 -0.06300212 -0.016984958 -0.050527073
000050 10 09 78 bd 4f 44 14 3d 74 c8 5b 3d 97 a7 74 3d
       -0.060555518 0.036197957 0.053657964 0.05973014
000060 c5 87 7e bd 63 e1 5b bd 98 8e 75 3c 81 7b 3b bb
       -0.0621412 -0.053681742 0.01498761 -0.002860755
000070 84 27 42 bb 45 fb 83 bd ce 05 79 bd 1c 0e 9b 3c
       -0.0029625604 -0.0644441 -0.06079655 0.018927626
000080 68 3e e7 bc ae db d0 3c 78 da 83 3d 78 fb 83 bd
       -0.028228 0.025495376 0.06438154 -0.06444448
000090 c7 40 22 3d 82 46 b2 bb 8c 84 00 bd 15 03 82 3d
       0.039612558 -0.005440534 -0.031376407 0.06348244
0000a0 b8 44 f0 3c 3f b0 76 3d de 76 83 bd 7f 54 a1 bd
       0.029329643 0.060226675 -0.064191565 -0.078774445
0000b0 72 c6 07 bd 02 74 8a bd 74 66 9c bd 51 8d 41 3d
       -0.033148237 -0.06760408 -0.07636729 0.04725391
0000c0 60 3f a6 3d 26 73 93 bd 85 83 9c 3d 0f 34 19 3d
       0.081175566 -0.07199697 0.07642273 0.037403163
0000d0 a6 91 5c 3c be 4e 8c bd a8 6b 44 bd 9e bc 9b 3d
       0.01346246 -0.068509564 -0.04795423 0.07604335
0000e0 ef 69 cd 3c a1 3d 97 3c 33 09 1e bd 3c 0d 92 bd
       0.025074927 0.018462004 -0.03858299 -0.071314305
0000f0 22 c0 e0 b7 10 cc 41 bc 30 27 b6 bc 51 a1 87 bc
       -2.679235e-05 -0.011828437 -0.022235483 -0.016556414
000100 6c 00 88 3d 58 30 8c 3c 5e 13 34 3d 1d 15 76 3c
       0.066407055 0.017112896 0.043963782 0.015019682
000110 3d da 32 bd 73 f9 4a bc 8b 9f 1b bd 61 b5 27 3d
       -0.04366516 -0.012388575 -0.03799395 0.04094446
000120 f3 b9 91 3d c7 ef c3 bc df 94 15 3d ae ad 97 bd
       0.07115545 -0.023918046 0.036518928 -0.07406174
000130 64 51 95 bd d0 85 86 3d e1 ad f1 bc c1 82 a6 bc
       -0.07290915 0.065684915 -0.029501857 -0.02032602
000140 e9 01 ae bc f3 c6 27 3d 3e 0e d3 3c eb a9 7e bd
       -0.021241145 0.040961217 0.025763627 -0.062173765
000150 c3 bc 8e 3d 0d 97 5c bd 26 3d 01 3d f2 2f 0d 3d
       0.06969597 -0.05385499 0.031552456 0.034469552
000160 e3 2c 96 3c 1a 2c 24 bd 93 aa 09 bd 2a 00 50 bd
       0.01833195 -0.04008112 -0.033609938 -0.050781406
000170 04 6d 6e 3d c7 cd 94 bd c3 83 94 3d 4d fb ab bc
       0.058209434 -0.072658114 0.07251694 -0.020993853
000180 d2 a3 f8 bc 91 2f 83 bd ae 0a 84 3d 60 52 8a bd
       -0.030351553 -0.06405557 0.064473495 -0.06753993
000190 e7 38 86 3d d5 dd 81 bc 40 7d f5 3a 32 8e d9 bc
       0.06553822 -0.015852848 0.0018729344 -0.026557062
0001a0 71 bf a9 bd 86 73 91 3d 65 02 88 3d 56 34 26 3c
       -0.08288468 0.071021125 0.06641082 0.010144314
0001b0 c8 56 8d bd ff 7b 77 3d 56 c0 53 bd 85 a8 69 3d
       -0.06901318 0.060420986 -0.051697098 0.05704548
0001c0 c7 4e 16 bd 40 34 16 3d 96 8d fe bc 36 89 49 bd
       -0.03669622 0.036670923 -0.031073373 -0.04920312
0001d0 b4 d0 43 3c 4d 47 0a 3d 18 e7 e0 bc 1d f9 75 bd
       0.011951614 0.033759404 -0.027453944 -0.060052026
0001e0 6d 8c 47 bd e3 88 61 3d 18 ab 12 bd 44 b5 9c 3d
       -0.048717905 0.055062186 -0.0358077 0.07651761
0001f0 15 98 89 3b ac 86 36 bc 88 7c 78 bd 6d dc 01 bc
       0.004199038 -0.011140507 -0.060665637 -0.007926089
000200 41 45 3a 3d b8 a9 21 3d 46 99 99 3d 8a 49 8e bd
       0.045476202 0.039468497 0.07499938 -0.0694762
000210 2f 5d a7 ba e7 0d 45 bd 63 fc 0c bd ab 70 8a bd
       -0.001276886 -0.04810896 -0.034420382 -0.06759771
000220 8b cb 1c 3d d2 75 ab 3d 0f 35 85 3d a5 b6 84 bd
       0.03828005 0.08372082 0.06504261 -0.06480149
000230 21 09 a0 3d fe 70 d6 bb 69 44 68 bc 90 52 8e bd
       0.07814241 -0.0065442314 -0.0141764665 -0.06949341
000240 c0 97 ac bd a6 75 b6 3c 14 50 38 bd e2 a5 64 3d
       -0.084273815 0.022272896 -0.044998243 0.05582226
000250 8e d3 05 3d ee 44 cc bc e4 f5 76 3d 4e 4f 8f 3d
       0.032672457 -0.024935212 0.060293093 0.06997548
000260 98 4e 81 3d 39 bb 40 bd 0c 08 64 3d b4 ea 22 bc
       0.06313819 -0.04705355 0.055671737 -0.009943653
000270 c2 c6 76 3d 38 54 6c bd 37 a5 72 3d 6e 96 90 bd
       0.060248144 -0.057697505 0.059239592 -0.07059942
000280 4b 12 9d bc 80 2a 6d bd fb d1 60 bd 23 b7 4e 3d
       -0.019173762 -0.05790186 -0.054887753 0.05046762
000290 39 3f 42 bd 4c 15 9d bd 85 6a 41 bd 6d 1d 6f 3d
       -0.047423575 -0.07670078 -0.047220726 0.058377672
0002a0 e7 c1 84 3d 92 fd ce 3c 71 2a 0c 3c 59 cf 8f bd
       0.064822964 0.025267396 0.008555041 -0.0702197
0002b0 d3 f7 87 3d ed 1d 19 3c 63 f0 61 bc 82 9e ea 3c
       0.066390656 0.009345514 -0.013790223 0.028640036
0002c0 30 3f 0e bd 58 f7 10 bd c6 93 ef bc 6d c9 81 bc
       -0.03472823 -0.035392135 -0.029245269 -0.015843118
0002d0 bc 7b 3f 3d 4b af 20 bb 3b 47 95 bd 74 8b 90 bd
       0.04674886 -0.0024518545 -0.07288977 -0.070578486
0002e0 fe d6 8d 3d 82 94 30 bc d0 02 6a 3c 12 43 88 bd
       0.06925772 -0.0107775945 0.014282897 -0.06653418
0002f0 87 bb 68 bd 9c 77 7b 3c b2 dc a5 3d 3b df 9c ba
       -0.056819465 0.015348341 0.08098735 -0.0011968383
000300 1d 25 84 3d f1 1b 18 3d 15 36 d9 bb 82 e7 90 3d
       0.06452391 0.037136022 -0.0066287615 0.070754066
000310 15 1d a8 3d de b6 97 bd 65 1f 9f bc 26 32 82 3d
       0.08208672 -0.07407926 -0.01942415 0.06357221
000320 fb 6e 85 bd 61 2e d8 3c fa 13 c3 3b 3b e0 46 3d
       -0.065153085 0.026389303 0.005953309 0.048553687
000330 7b 27 09 bd 0b bd 7a bd 5b 59 0f bd fb 5e 35 bd
       -0.033484917 -0.06121544 -0.034997325 -0.044280034
000340 91 b9 16 3d fe 61 01 3b d5 62 0e bd d4 7a e2 3c
       0.036798064 0.0019742246 -0.034762222 0.02764646
000350 62 60 5a 3d c2 f5 5d 3d 8d 12 75 3d 06 b0 3d bc
       0.053314574 0.05418945 0.059832145 -0.011577612
000360 95 d7 ce 3c 0c b4 1d 3d 21 b5 9c bd fe 76 0d 3d
       0.025249282 0.038501784 -0.07651735 0.034537308
000370 2f 48 21 bd f4 e1 96 bd db 40 06 3d a8 1a 28 3d
       -0.03937548 -0.07367316 0.032776695 0.041041046
000380 f2 dd ac 3d ec 65 72 3c 6b 11 6f 3c 98 b7 9f bc
       0.0844077 0.014794808 0.014591555 -0.019496724
000390 44 73 2b 3d 6b e3 48 3d c1 6e f3 bb 01 81 65 bc
       0.041857973 0.049045008 -0.0074289744 -0.014007808
0003a0 cd 56 08 3d e9 1a 0c 3c 69 e7 42 bc 3a 04 5e bd
       0.033285905 0.008551338 -0.011895993 -0.05420325
0003b0 63 7b 82 bc 20 29 22 bd bc 85 ae 3d 11 18 a5 3d
       -0.015927976 -0.03959 0.085216016 0.08061231
0003c0 17 7f 35 3d 04 df 83 bd c1 0a 3f bd 67 9d f1 bc
       0.044310655 -0.06439021 -0.046641115 -0.029494
0003d0 a6 f4 5f 3d 44 f2 63 3d cb 32 d0 3c 9d 2d 93 3d
       0.054676674 0.055650964 0.025414845 0.071864344
0003e0 26 29 43 bd 58 8d 3e bc aa a0 0d 3c 95 69 5c bd
       -0.047646664 -0.011630379 0.008644262 -0.05381163
0003f0 fb e5 2e bd 50 a1 0d 3d 6c cc 97 3d 0b 2a 98 3c
       -0.042699795 0.034577668 0.07412037 0.018574735

fc1.bias f4 [128]
000000 da 27 45 bd 8c 2d a0 bd 79 8a 7c 3c 62 b0 98 3d
       -0.04813371 -0.078211874 0.015413874 0.07455517
000010 39 38 d7 3b cc a3 db 3c 07 69 76 bd 24 85 12 3d
       0.0065679816 0.026811503 -0.060158756 0.035771504
000020 ba d2 94 bd 4f 19 84 bd d1 84 17 3d d7 cb 96 bd
       -0.072667554 -0.0645014 0.036991898 -0.07363098
000030 36 4a 7f bd da 4b 91 3c da 7c ad bd 2c da 44 bd
       -0.062326632 0.017736364 -0.08471079 -0.048059627
000040 5e a2 a3 3d 62 0d 77 bd eb 12 4d bd 42 4f 85 bd
       0.079899535 -0.060315497 -0.05006687 -0.06509258
000050 ea c0 d8 bb 82 b5 8c bd 18 1a 8d 3c 9b 1e cc bc
       -0.006614794 -0.06870557 0.017224357 -0.024916938
000060 08 f2 a1 3d 84 4d b7 3b 53 2e 99 3d 31 29 36 3d
       0.07907492 0.0055939574 0.07479539 0.044472877
000070 48 8f 54 3d 8f 67 96 3d f1 f6 2e bc d4 aa a9 3d
       0.051894456 0.07343971 -0.010678993 0.08284536
000080 2c ac 2f bd e5 dd f4 bb 1f e4 6a bb 42 8c 9a bd
       -0.042888805 -0.007472741 -0.0035841537 -0.07546283
000090 2f 6a 68 3d 43 86 53 bd 5b 29 4a 3d d7 0d 0d bd
       0.05674189 -0.051641714 0.049355846 -0.034437027
0000a0 da 7f 43 bc 3c 20 38 3d 67 d1 7c bc 23 a7 9e 3c
       -0.011932338 0.044952616 -0.015430785 0.019366806
0000b0 fa 5c 7d 3d 17 f3 42 bd 50 53 64 3b 73 92 a9 bd
       0.061856247 -0.04759511 0.0034839697 -0.08279886
0000c0 36 0c 89 3c e1 04 a0 3d a8 fe 65 3d 62 7f 3c bd
       0.016729455 0.078134306 0.056151062 -0.04601992
0000d0 77 7f aa bd 4b 78 0c bd 89 ae 80 bd cf a6 ac 3c
       -0.08325093 -0.034294408 -0.0628329 0.021075634
0000e0 dc 55 64 bd 7a 5b 23 bd c3 b2 9b 3d d2 54 9d bc
       -0.055745944 -0.03988216 0.076024555 -0.019205485
0000f0 b2 6f 98 3d c1 c8 01 3c c7 e8 01 3d 76 4e 90 3d
       0.07443179 0.007921399 0.031716134 0.07046215
000100 85 2c 32 3d 1e f5 36 3c a6 18 14 bd 64 60 63 3c
       0.04349949 0.011166839 -0.03615632 0.013877962
000110 99 2d 52 bc e9 f8 4d bc 24 5a 46 bd cf 22 8b bd
       -0.012828254 -0.012571552 -0.04842581 -0.067937486
000120 42 24 29 bd a6 df 76 3d 82 d2 07 3d 3a 4f 95 3d
       -0.041294344 0.06027188 0.03315974 0.07290502
000130 a4 f2 40 3d 5d b4 f9 3c 02 c5 00 bd 99 07 97 3d
       0.0471064 0.030481512 -0.03143788 0.07374496
000140 18 7f c8 bb a1 60 45 3d 7d d8 5e bd 42 f1 79 3d
       -0.0061186664 0.048187856 -0.054405678 0.061021097
000150 f0 3a 95 3d 3c fb a3 bd 45 3a 14 bd 9e 02 35 bd
       0.07286632 -0.080069035 -0.036188383 -0.04419195
000160 d3 9e 4c 3d 07 c3 9a 3d 25 f5 7c 3c 01 91 de 3b
       0.049956154 0.0755673 0.015439306 0.006792188
000170 40 e8 31 3d 33 d1 75 bd b5 5b 74 bd ee 32 a0 3d
       0.04343438 -0.06001396 -0.05965777 0.07822214
000180 ab b9 6e 3d 22 9c 2c bc b6 e0 10 bd b3 3e 1e 3c
       0.058282536 -0.010535272 -0.03537055 0.009658503
000190 45 e8 30 3d 9d ba 62 3d d4 65 85 3d 4a fe 9d bd
       0.04319026 0.05535375 0.06513563 -0.077145174
0001a0 56 6b 02 bd 98 95 73 3d fe 61 a1 bd 87 04 46 bd
       -0.031840645 0.059468836 -0.07880019 -0.04834416
0001b0 69 60 c9 bc 49 15 97 3d 7c 5d 96 3d c3 14 49 3d
       -0.024582105 0.07377107 0.073420495 0.049092066
0001c0 4a 5a 13 bd 45 f3 3f bd bf 90 82 bd 52 90 64 bd
       -0.03597478 -0.04686286 -0.063752644 -0.055801697
0001d0 49 9d 83 3c 3a 5e b6 bc 23 dd 4d bd d6 62 5d bd
       0.01606621 -0.022261728 -0.05025972 -0.054049335
0001e0 c1 a3 97 3d 43 1a f1 bc e8 52 6c bb d7 79 53 bd
       0.074042805 -0.029431468 -0.0036060158 -0.051629867
0001f0 09 52 4c bd 99 5e a1 3d 67 74 0e 3d 96 05 c4 3c
       -0.049882922 0.07879371 0.03477898 0.023928445

fc2.weight f4 [128, 128]
000000 51 ad 1f bd 73 ca 7f bc 08 5c 16 bc 14 24 76 3b
       -0.038983647 -0.0156122325 -0.009177215 0.0037558125
000010 a9 58 40 bd 8f 4b b0 bc 02 e7 93 3d ad c3 81 3d
       -0.046959553 -0.021520404 0.072217956 0.0633615
000020 ac e3 a6 bd 60 dc 95 3d 47 35 93 3b c8 9c 52 bd
       -0.08148894 0.07317424 0.004492435 -0.05141905
000030 af 1a ac 3d 63 fe a4 3b 30 62 0e bd 3d de b1 bd
       0.08403527 0.005035208 -0.034761608 -0.08684967
000040 e5 a4 60 3d a2 45 90 3c 47 34 52 bc 60 7d 51 bc
       0.054844756 0.017611329 -0.012829847 -0.012786239
000050 51 21 af 3d a0 09 cd bc 0b ed 45 3d 13 5c 35 bd
       0.085512765 -0.025029004 0.048321765 -0.044277262
000060 88 ac 2a 3d 76 4f 1b 3d 32 8f 4d 3d 54 c6 9f 3d
       0.041668445 0.037917577 0.05018539 0.078015
000070 a1 f5 b6 3d ba a7 2a bc 89 65 a4 3d 8d 34 70 3d
       0.08933569 -0.010415966 0.08027179 0.058643866
000080 5d 2f d0 3c f4 0a 4a bc 3c 46 9f 3d 96 4c 04 bd
       0.02541321 -0.012331713 0.07777068 -0.0322996
000090 10 e7 a3 3c c7 39 91 3c e5 bd 87 3d c6 5e 5f bb
       0.02000764 0.017727746 0.066280164 -0.003408359
0000a0 7a b5 11 3d af 8b 98 bd 38 db 7f bd 9b c9 a1 3d
       0.03557346 -0.074485175 -0.062464923 0.07899781
0000b0 77 0e 91 3c be b6 94 bd 58 c9 72 bc 65 83 8a bc
       0.017707093 -0.07261418 -0.014818512 -0.016908357
0000c0 a6 f4 87 3d 03 05 b2 bd 5c a5 75 3d 65 c0 3a bd
       0.0663846 -0.08692362 0.059972152 -0.045593638
0000d0 10 40 6a 3d a4 1c 7c 3c e9 46 73 bd 0c d6 6d 3d
       0.05719 0.015387688 -0.059393797 0.05806546
0000e0 da 15 01 bd 90 34 3c 3d 46 f5 69 bc 91 86 32 bc
       -0.03151498 0.045948565 -0.014279669 -0.010896341
0000f0 ee 60 9b 3d 2f 75 47 bd eb 10 b4 3d 7c cf 8f bd
       0.07586847 -0.04869574 0.08792289 -0.070219964
000100 d9 52 2d 3d 67 de 89 3d b1 c1 e7 3c 48 df 50 3d
       0.042315338 0.06731873 0.028290601 0.050994188
000110 b6 57 97 bd 13 05 e2 bb ee 36 40 3d 4f 66 c0 3a
       -0.073897764 -0.0068975776 0.046927385 0.0014678928
000120 2c b9 4c 3c 08 fa 81 bd 59 59 4a bd 8d db 1b bd
       0.01249532 -0.06346518 -0.049401615 -0.038051177
000130 50 37 98 3d 5c f8 5b 3d e2 4d 97 3d d9 7b 88 bc
       0.07432425 0.05370365 0.07387902 -0.016660618
000140 d2 5c 4a bd 8c bc 10 3d 02 cd 96 bd c3 f3 3c bd
       -0.049404927 0.035336062 -0.07363321 -0.046130907
000150 fa 4a 2c 3c de dc 40 bd ca 1f 9a bd 29 2e 83 3d
       0.010515923 -0.047085635 -0.075255945 0.06405289
000160 f6 8f 87 3d fd 4a 58 bb 0e 33 5c bc 19 4a b6 3d
       0.06619255 -0.003300368 -0.013439907 0.08900852
000170 3d 36 62 bd 17 62 e7 bc fb 53 16 bd c3 dc 95 3b
       -0.055227507 -0.028245015 -0.036701184 0.004573436
000180 d8 f5 c5 bb 9c 81 83 bd 51 6b 7c 3d 0c 2e 51 3d
       -0.0060412697 -0.064212054 0.061625782 0.051069304
000190 49 44 9e bd ae 75 85 3c c1 d3 51 bd 8b 01 a2 bd
       -0.07727868 0.016291466 -0.051227335 -0.079104505
0001a0 d3 6d ba 3c 2f 4a 2a 3d 11 94 a6 3d d4 cb 85 bd
       0.022757446 0.041574653 0.0813371 -0.06533018
0001b0 1c 7e 36 bc d9 09 20 3d 1a 83 4a bd 3e 6f a1 bc
       -0.011138465 0.03907189 -0.049441434 -0.019706365
0001c0 ee 2c 2e bd 04 aa 5d bd d1 6b a9 bd 97 5d ae bd
       -0.042523317 -0.054117218 -0.082725175 -0.085139446
0001d0 6b a3 cd 3c 33 d3 d8 3c 82 91 98 bc 8b 89 b0 bc
       0.025102338 0.026467895 -0.018624071 -0.02154996
0001e0 ad 2c 2d 3b 6b 31 b3 bc 36 2b 5b 3d d0 0f 00 3d
       0.0026424334 -0.02187415 0.053508006 0.03126508
0001f0 8a 16 00 bd 27 ce 46 bc 09 2b b5 3d eb aa 7a 3d
       -0.031271495 -0.0121341115 0.08846099 0.061198156
000200 88 83 d7 bb c7 8c 83 bd 6e f9 72 3c 01 20 8f bd
       -0.006576959 -0.064233355 0.0148299765 -0.06988526
000210 28 2d 76 3d 93 3c 53 3c 27 55 d0 bb 2e d0 9f bb
       0.060101658 0.01289286 -0.006357807 -0.004877112
000220 5a 38 17 3c 0c a2 94 bc 0c 72 81 3d 81 b0 59 bd
       0.009229744 -0.018143676 0.06320581 -0.053146843
000230 ec bd 08 3c 94 65 2b bd 7a 4a 59 3d 08 a5 62 3d
       0.008346062 -0.04184492 0.053049542 0.055333167
000240 81 4f 46 3d 00 4b 82 bd fb b7 84 bd 33 cb 7b bd
       0.048415665 -0.06361961 -0.06480404 -0.061473083
000250 39 d4 b3 3c a8 1e 95 bd fc a9 9a 3d a3 db 85 bb
       0.021951782 -0.07281238 0.07551953 -0.0040850206
000260 1f 56 ca bc fd f2 43 3d 10 d0 82 bc 46 39 57 3c
       -0.024699269 0.047839154 -0.015968353 0.013136214
000270 1d 9d 93 3c 64 ea 89 bd 4c 50 a1 3d ce 0c a8 bd
       0.018019253 -0.067341596 0.078766435 -0.08205567
000280 3a 7e a9 bd ac 25 8f 3d 55 b0 ae 3d 0c 31 2c 3d
       -0.08276029 0.06989607 0.085297264 0.042038962
000290 26 5a 30 bd 6c ef 31 bd 29 68 95 bd ea 7f 87 bd
       -0.043054722 -0.04344122 -0.072952576 -0.066161945
0002a0 90 ee 55 3c 78 25 0a 3d 75 9f 8c bd a8 53 97 3d
       0.013057366 0.03372714 -0.068663515 0.07389003
0002b0 0b a5 0a bc 99 fc 07 3d 65 26 85 3c bc 69 3a bc
       -0.008462201 0.03319988 0.01625366 -0.011377748
0002c0 6f 42 46 bd 3b 9d a0 3d ee 6b 7d bc 08 16 2e 3d
       -0.0484032 0.07842489 -0.015467627 0.04250148
0002d0 34 75 8a 3d 84 02 72 bc 10 2a 59 3c 11 45 a2 39
       0.06760636 -0.014771108 0.013254657 0.00030950506
0002e0 7a fd b5 bd 53 4a c8 ba 33 db 14 3c 64 77 aa 3d
       -0.088862374 -0.0015280939 0.009085464 0.08323553
0002f0 36 73 e6 3c a0 9c fb bc eb a7 39 bd bc c9 6d bd
       0.028131109 -0.030714333 -0.045326155 -0.058053717
000300 34 33 0f bd 07 d9 b3 3d 0b 9d 5a 3d 09 d8 91 3d
       -0.03496094 0.08781629 0.053372424 0.071212836
000310 ea 7a b3 3d d6 74 a7 bd 34 74 58 3c 65 1b 57 3d
       0.08763678 -0.081765816 0.013211299 0.05251636
000320 d7 54 e7 3c 0f f5 48 3d 95 bb cb 3c fa 50 e8 bb
       0.028238697 0.04906183 0.02486972 -0.0070897313
000330 c4 9a 88 3d 71 10 12 3d cf a5 a1 bd f0 e7 93 3d
       0.06670144 0.03566021 -0.078929536 0.07221973
000340 ee 41 a8 bd 47 d7 aa bd b1 65 3b 3d bd f3 81 3d
       -0.082157 -0.08341842 0.045751277 0.063453175
000350 3d fc 84 bb 0d 22 4a bd 16 b6 92 3d 4f 09 4b 3c
       -0.0040583895 -0.04934888 0.071636364 0.012392356
000360 86 f7 ad bd 79 5c 81 3d fe 8a 88 3d f3 63 23 3c
       -0.08494477 0.06316466 0.06667136 0.00997256
000370 ef 4c 0d bd 2b 2c 8d bd 28 10 83 bd 65 d3 7f bd
       -0.034497198 -0.0689319 -0.06399566 -0.06245746
000380 e0 89 16 bd e2 38 f9 3a 02 3c 07 bd b9 cf e2 bc
       -0.03675258 0.0019014145 -0.033016212 -0.02768694
000390 54 d5 a2 3d a2 d6 20 bd 63 80 b2 3d 04 e4 48 3d
       0.07950845 -0.03926719 0.08715894 0.049045578
0003a0 f9 56 3e bd cb 12 4a bd af 68 08 bd 81 ba 0c 3b
       -0.046469662 -0.04933433 -0.03330296 0.002147347
0003b0 bf 55 1a 3d f4 1d 76 bd 47 3b 9e 3d 30 fb 1c bd
       0.03767943 -0.06008716 0.0772615 -0.03832549
0003c0 42 2b 7c bc 1c d9 32 bc ca db 42 bd 36 18 51 3c
       -0.015391173 -0.010916021 -0.04757289 0.01276212
0003d0 a6 2d 00 bd 61 57 a3 bd 19 2b a3 bd 28 89 20 3a
       -0.031293534 -0.079756506 -0.079672046 0.00061239535
0003e0 2b d2 45 bd 87 2c 14 3d fd 6b 02 bc 99 51 66 3d
       -0.048296135 0.036175277 -0.007960317 0.05623016
0003f0 3f a1 89 3c 60 91 6b 3d c5 90 9b 3d f2 2b 7b bc
       0.016800521 0.057511687 0.07595972 -0.015330302

fc2.bias f4 [128]
000000 73 00 84 3d 53 95 ab bd bf 2e 85 3d 7d ea a8 3d
       0.06445398 -0.08378091 0.06503057 0.0824785
000010 4e 17 67 bd 30 93 aa 3d b4 fa 2f 3d 27 d4 93 3d
       -0.05641871 0.08328855 0.0429637 0.07218199
000020 27 15 71 bc e3 e2 97 bd 7d 31 0c bd f1 67 39 bd
       -0.014714516 -0.07416322 -0.034226883 -0.045265142
000030 e1 31 0b bd 11 22 5a bd e9 e3 9d 3d db 9a 97 bd
       -0.033983115 -0.053255145 0.07709486 -0.07402583
000040 2c 1c f9 3c 6a 69 cf bb 56 80 80 3d 15 52 46 bd
       0.030408941 -0.006329705 0.06274478 -0.048418123
000050 f8 49 a7 bc f8 22 02 bc 73 a3 64 bd df 73 6c 3d
       -0.020421013 -0.0079429075 -0.05581994 0.05772769
000060 0d aa 1d 3b 0e 3e c8 bc bd 52 7d 3c 8a 34 e4 bc
       0.0024057657 -0.024443652 0.015461621 -0.027857084
000070 39 59 8a 3d 8f a1 8e 3d ec 67 eb 3c 37 f6 86 3d
       0.06755299 0.069644086 0.028736077 0.065899305
000080 19 1d 83 bd 5a 64 09 bd ff 5f 1f bb dc 1b 38 bc
       -0.06402034 -0.03354297 -0.0024318693 -0.011237111
000090 8a ce 37 bd 6a fb a5 3c be 3a 22 3d 3e 03 86 bd
       -0.044874705 0.020261485 0.039606802 -0.06543587
0000a0 c6 23 02 bd 86 5f 5d 3d f7 e1 d0 3c a8 a8 09 bc
       -0.031772397 0.054046176 0.025498373 -0.008402027
0000b0 f7 6a ad bd 54 b2 20 3d e2 dd 1f bc e4 2e 50 bd
       -0.084676675 0.039232567 -0.009757491 -0.05082597
0000c0 20 15 5f 3c f5 4c 80 bd 82 73 1f bd 58 15 6a bd
       0.013615876 -0.062646784 -0.038928516 -0.05714926
0000d0 83 14 a2 3b 6c 23 3c 3d d3 66 eb 3b bc fa 43 3d
       0.004946293 0.04593222 0.0071838885 0.04784654
0000e0 22 cd a6 bc 34 d6 95 3d d5 27 ab bc 50 d6 dd bc
       -0.020361487 0.07316247 -0.020893017 -0.027079731
0000f0 c4 63 ac bd a3 a1 63 3d 48 96 9d bc e2 1d 55 3d
       -0.08417466 0.05557407 -0.019236699 0.05203045
000100 5d bb 85 3d 22 9a 7c ba e4 48 48 3d 6c 6d 8b bd
       0.06529877 -0.00096360047 0.04889764 -0.0680798
000110 54 b2 2c 3c 34 cf 8e bd 8f e0 23 3a a0 bc 90 bd
       0.010540564 -0.069731146 0.00062514184 -0.07067227
000120 30 af cf 3c 79 bb 7e 3d c1 76 22 3d d8 9c 21 3d
       0.02535209 0.062190507 0.039664034 0.03945622
000130 52 e6 71 bd eb ed 7c bd b3 f2 8d 3d ca 02 c0 39
       -0.05905754 -0.061750334 0.06931057 0.00036623172
000140 9d 79 a9 3d cb 90 8a bd ac 27 e5 3c 50 b6 5a bc
       0.08275149 -0.06765898 0.027973019 -0.013349131
000150 57 ad a7 3c b0 3e 8d bd 4f 89 28 bd 32 79 2b 3d
       0.020468397 -0.06896722 -0.041146573 0.041863628
000160 71 c1 35 3b 2b ce b0 bd c8 aa 04 3d 8f 9f 71 3d
       0.0027733708 -0.086330734 0.032389432 0.058990058
000170 c1 11 2b 3d f3 38 b5 3c d9 ef a3 bc e0 29 2d bd
       0.04176498 0.022121882 -0.02001183 -0.042276263
000180 ac a6 37 bd fb 28 12 bc 66 be a2 bd 4a 0e 1a 3d
       -0.044836685 -0.008920903 -0.07946472 0.037611283
000190 90 af a8 3c 08 98 b6 3d 36 fb e4 3c 25 8d 21 bd
       0.020591527 0.089157164 0.027951818 -0.039441247
0001a0 bc 8a 53 3d 11 6e d7 bc a6 08 51 bd 94 fe 14 3b
       0.05164598 -0.026297601 -0.05103364 0.0022734748
0001b0 f3 96 4f 3d df 4b 21 bd 99 9f 2e bd 64 6b 6a bd
       0.050681066 -0.039378997 -0.042632673 -0.057231322
0001c0 52 53 2d bd 36 45 06 bc 0d a2 dc 3c f9 13 27 bb
       -0.04231579 -0.008195212 0.02693274 -0.0025494082
0001d0 dd 5f b0 3d 30 b9 72 3d 83 2e 50 bc 62 06 14 3d
       0.086120345 0.05925864 -0.012706402 0.0361389
0001e0 6b a5 5d 3d a2 66 50 3d 7b 3d 6d 3b 87 13 95 bb
       0.054112833 0.05087913 0.0036199975 -0.004549447
0001f0 b9 24 aa bd 37 88 e4 bc 46 7c 68 3d 97 9f 95 ba
       -0.083077855 -0.027896984 0.05675914 -0.0011415359

action_head.weight f4 [5, 128]
000000 7b de 17 bc 49 09 2c 3d 45 e5 53 3d 11 9f 90 bd
       -0.009269352 0.042001043 0.05173232 -0.070615895
000010 d8 13 ba bb 17 3e 6a 3d 5b 47 54 bc 5e 38 cf bb
       -0.005678635 0.05718812 -0.012956466 -0.006323858
000020 4f cd cd 3c ed 59 ae bc 8e 8b 9f bd 86 4a 82 bd
       0.025122313 -0.021283114 -0.0779029 -0.063618705
000030 a8 b3 50 bc 54 9b 8e bd af 68 9b 3d 64 71 ad 3d
       -0.012738146 -0.0696322 0.07588326 0.08468893
000040 bd 0e d7 3b 14 ca 8d 3c 3e 25 44 bd 20 ad 72 3c
       0.0065630362 0.017308272 -0.04788708 0.014811784
000050 35 53 3d bd 1c 12 86 bd 71 db 6f bd 2a 2f 59 3d
       -0.04622193 -0.06546423 -0.058558885 0.053023495
000060 c5 cd 6b 3d 6b 72 9c 3d d6 d4 94 3d b9 04 8a bd
       0.057569284 0.07639011 0.07267158 -0.06739182
000070 68 e6 51 3d 75 d9 46 3c 3a 11 d2 bc 13 3c b1 bc
       0.051245123 0.012136807 -0.02564298 -0.021635091
000080 08 c2 85 3d eb 53 97 3c 41 bb 4d 3d b2 48 21 bd
       0.06531149 0.018472632 0.050227407 -0.03937597
000090 f7 67 b0 bd b0 c4 2a bd 54 6b 9d bc 8c e3 a9 bd
       -0.0861358 -0.041691482 -0.019216217 -0.08295354
0000a0 4e 0c 9e 3b 62 b6 94 bd 4e d3 9a bd 89 fd 16 3c
       0.004823244 -0.07261349 -0.075598344 0.009215721
0000b0 f6 37 a3 3d 5e 9a 14 bc 2d f8 30 3d 41 46 98 bd
       0.07969658 -0.009070007 0.04320543 -0.07435275
0000c0 e7 7c a7 3d f8 18 90 bd 98 d3 49 bd bf d9 33 bc
       0.0817812 -0.070360124 -0.049274057 -0.010977208
0000d0 9f cc c7 bc 65 48 97 3d 4a b5 2d bd ad 77 5d 3d
       -0.024389563 0.07386855 -0.04240922 0.05406921
0000e0 ef fa 85 bc cb 65 35 3d 90 7e 9c 3d d4 fd b0 bd
       -0.016355006 0.04428653 0.076413274 -0.08642164
0000f0 22 df fb 3a e1 77 bd 3c d5 8b 06 bd 8a 29 8d 3c
       0.0019216279 0.023128452 -0.032848198 0.017231721
000100 eb 32 54 3d f6 4e 16 bd e7 82 66 bd 71 b5 33 bd
       0.05180637 -0.036696397 -0.056277182 -0.043874208
000110 a3 03 69 3d a8 65 29 3d 3d 67 4d 3d 74 24 3b 3c
       0.056888234 0.041356713 0.050147284 0.011422265
000120 7f 6d 89 3d 85 e6 90 bd 37 be 8b 3b 07 ae 80 3d
       0.06710338 -0.07075218 0.0042646187 0.06283193
000130 33 f5 9f 3c 51 72 66 bd ca c6 95 bd 56 4b 95 bd
       0.0195261 -0.056261364 -0.07313307 -0.0728976
000140 20 13 c9 3c 9a 26 1c bd ee ce 58 bc b5 a7 8a bd
       0.024545252 -0.03812275 -0.01323293 -0.06770269
000150 26 39 15 3d b7 e0 16 bd 98 fc 76 bd 45 26 82 3d
       0.036431454 -0.0368354 -0.060299486 0.063549556
000160 41 a4 e4 bc ee 35 a6 3d 9a 61 89 bd f0 a7 b5 bd
       -0.027910354 0.08115755 -0.06708069 -0.08869922
000170 64 72 cd 3c c0 1e 95 3d fb 3b 9f bc a8 2d 89 bd
       0.02507896 0.07281256 -0.01943778 -0.06698161
000180 9a a3 0e bd 1f 25 96 3d e1 b9 9e 3d 30 74 9b bd
       -0.03482399 0.07331299 0.07750297 -0.075905204
000190 be 5c 33 3d f7 1e 9a bd cb c0 c1 3c c2 3b c4 3c
       0.043789618 -0.07525437 0.023651501 0.023954276
0001a0 de 7e c9 3c ad d2 2a 3d 31 7d 31 3b 21 54 8c bd
       0.024596628 0.041704822 0.0027082677 -0.06851984
0001b0 4f ea 15 bd 40 bf 89 bc 6d 75 94 bb c8 88 9b bd
       -0.036600407 -0.016814828 -0.0045306 -0.07594448
0001c0 11 3d 84 bd 7f b4 b0 bb 1b c7 75 3d a7 1b 68 bd
       -0.0645696 -0.0053926106 0.060004335 -0.056666996
0001d0 2b d2 96 3d d4 85 d4 bc 42 7e fd 3c 10 bd 49 bd
       0.07364305 -0.02594272 0.030943993 -0.04925257
0001e0 e8 98 5d 3c 7d 6e 85 3d 2c e9 76 bc 91 bd e9 3c
       0.013525225 0.065152146 -0.015070241 0.028532775
0001f0 31 e7 e6 3c 4c f1 bd bb 67 f4 3b 3d 4b 95 f1 3c
       0.028186413 -0.005796587 0.045887377 0.029490134
000200 a5 52 87 bd 38 de 95 ba b9 52 92 bd 10 a3 41 bd
       -0.0660756 -0.0011434024 -0.07144684 -0.04727465
000210 97 7d 2e bd 43 f3 9d bd 08 ff 68 3c ec 10 9c 3d
       -0.04260024 -0.07712414 0.01422096 0.07620415
000220 5b 7c e8 bc f6 9a 94 3d 23 85 b3 3c d2 30 60 3d
       -0.02837961 0.07256119 0.02191407 0.05473406
000230 a2 7f 70 bb 5c a7 88 3d db 6b 3c bd 7f aa 35 3c
       -0.0036697169 0.06672546 -0.046001296 0.011088013
000240 be a1 95 3d 38 65 59 bb 63 77 e3 bc b0 bd 93 bc
       0.073062405 -0.0033171903 -0.027766889 -0.018034786
000250 96 21 68 bd 34 c6 48 3d ae 1d a4 3d ac d3 43 3d
       -0.056672655 0.049017146 0.080134735 0.047809288
000260 f9 c1 a3 3d 3a 17 06 bd d8 47 5f 3c e9 a3 09 bc
       0.07995982 -0.032736994 0.013627969 -0.008400896
000270 1b 2d 03 3d 3b fa ab bd 26 ed e2 3c a6 c0 2a 3d
       0.032025438 -0.08397337 0.027700972 0.04168763
000280 0a a2 69 bc 1c d4 4a 3d 13 bb 8f 3d 05 62 61 3c
       -0.0142598245 0.04951869 0.070181035 0.01375628
000290 53 0d 3b 3d 5f 68 ae 3c 6d 8e 81 bd b8 f7 cc bc
       0.045667004 0.021290002 -0.06325994 -0.025020465
0002a0 ad 0f 46 bd ae a8 7f bd e9 59 f6 bc 61 61 0d 3d
       -0.048354793 -0.062416725 -0.03007217 0.034516696
0002b0 f6 93 02 bd 60 d3 9e 3d 78 fd 10 bd bd ed e8 3c
       -0.031879388 0.0775516 -0.035397977 0.028433675
0002c0 b8 15 3c bd 86 30 36 3c 6b 4b ab 3d b7 76 a6 3d
       -0.04591915 0.011119967 0.08363994 0.08128112
0002d0 2f 0c b1 bc 24 49 d6 bc 7d e8 e8 3b 08 db b5 3b
       -0.021612255 -0.026157923 0.007107793 0.005549792
0002e0 87 bf 5a bd d9 49 a8 3d fc 5c 07 bd 72 a8 a1 bd
       -0.05340531 0.0821721 -0.03304766 -0.078934565
0002f0 79 19 8c bd 75 65 ae bd cd ef d8 3c a7 d0 5f 3d
       -0.06840796 -0.08515445 0.026481533 0.054642346
000300 61 6b 91 3c 75 d8 a9 3d e0 31 8c bd 8c e6 27 3c
       0.017751398 0.08293239 -0.068454504 0.010247838
000310 e6 38 71 3d cb 60 bd 3c 6c 91 a5 bd 76 88 90 3c
       0.058892153 0.023117444 -0.08084378 0.017643195
000320 9d c3 68 bd 44 6a 8e 3d 43 1f 09 3d 0a 3a 95 bd
       -0.056827176 0.06953862 0.03347708 -0.07286461
000330 a3 6c 86 3d 72 a2 90 3d b2 5b a7 3d af 41 d7 3c
       0.065636896 0.07062234 0.08171786 0.026276438
000340 25 4c 9f bd ae 75 a3 3b 91 02 49 bd ec 70 31 3d
       -0.07778195 0.0049883937 -0.049074713 0.04332058
000350 ba 17 01 bc 44 90 50 3d 7f 92 92 bc 6e 85 8b 3d
       -0.007879192 0.050918832 -0.01789212 0.06812559
000360 a9 83 02 bd c2 cf f6 3c d8 fd 79 3d b9 44 91 3c
       -0.031863842 0.030128364 0.0610331 0.017732965
000370 18 82 9b 3d 9b d0 80 3d 06 87 b1 bd 41 95 3b bc
       0.07593173 0.06289788 -0.08668332 -0.011449159
000380 b5 f2 69 3d a0 2f e9 3a cf 2d f8 3c e3 ad c7 3c
       0.05711623 0.0017790683 0.03029528 0.024374908
000390 17 3c 24 bd 49 96 b8 bc ef d3 8d bd 29 9a 89 3d
       -0.04009637 -0.022532599 -0.06925189 0.06718857
0003a0 a2 da b3 bc d6 4c 21 3d 64 38 ff 3a 12 67 c0 bc
       -0.021954838 0.039379917 0.0019471762 -0.023486648
0003b0 6e a5 27 3c 5e 3d 7b 3d 72 56 ac ba 26 3d a7 3d
       0.010232313 0.06133782 -0.0013148321 0.0816596
0003c0 7a 7e 65 bd 30 26 46 3d 56 a3 70 bd c2 f5 c9 3b
       -0.05602882 0.048376262 -0.05874952 0.00616333
0003d0 49 39 83 bd a7 e8 63 bc 4a 87 9b bd 07 44 ab bd
       -0.06407411 -0.013910449 -0.07594164 -0.083625846
0003e0 ec ab 70 bd 6f 9b 86 3d b0 5d 88 bc 14 40 b9 bd
       -0.058757707 0.06572615 -0.016646236 -0.09045425
0003f0 ea 44 42 bc aa 2a a8 bc 51 a2 58 bd d4 83 a0 3d
       -0.011857251 -0.020528156 -0.052889172 0.07837644

action_head.bias f4 [5]
000000 5c f7 f9 ba 1e d3 92 3b 84 51 5c 3c ee c3 9e bd
       -0.0019070911 0.0044807335 0.013447169 -0.07752214
000010 6b 2f 09 bd
       -0.033492487

value_head.weight f4 [1, 128]
000000 75 1b 6b bc 5b 6b 58 3d 4f 25 16 bd 2a c3 ad 3c
       -0.014349808 0.052836757 -0.036656674 0.021211226
000010 39 2a 67 3d 6a 21 e5 bc 9d cb 2e 3d bc 84 92 bd
       0.05643675 -0.027970035 0.04267465 -0.07154223
000020 92 8d 68 3b fa e2 9f bc f8 22 43 bd 32 3d d2 b9
       0.0035484773 -0.01951741 -0.04764077 -0.00040099915
000030 26 47 e0 3b 38 30 45 bd 91 17 c0 3c 3f f2 51 bd
       0.006844419 -0.048141688 0.023448737 -0.051256415
000040 00 99 83 3d b2 5e 9f 3d 1c 2b 00 3c 3a 25 66 bd
       0.06425667 0.077817336 0.007822778 -0.056187846
000050 2b ec b7 3d 1a fd 6b 3d d4 2e 94 bb e1 99 20 bd
       0.08980592 0.057614423 -0.004522184 -0.03920925
000060 00 df 5b 3d 11 a1 6c 3d 74 6b a2 3d 67 d7 59 3d
       0.053679466 0.057770792 0.07930651 0.05318394
000070 6a 6c 80 3d 2a 2c 58 bd a8 25 30 bc 6e 0a 8e bd
       0.06270678 -0.052776493 -0.010751165 -0.06935583
000080 c7 35 b4 3d 14 a0 7f bd 0a ae 45 bd 05 7b 94 bd
       0.0879932 -0.06240852 -0.04826168 -0.072500266
000090 4d 8a b0 3b 75 57 1e 3d 83 58 fd 3c 83 97 13 bd
       0.0053875805 0.038657624 0.030925995 -0.036033165
0000a0 ec 83 f9 3c 3c 2a fa bc a4 b8 8f bd 45 7b 9e bd
       0.030458413 -0.030537717 -0.07017639 -0.077383555
0000b0 52 77 07 bd 2b 66 a0 3c 5c c2 57 3d f1 16 9a 3c
       -0.033072777 0.019579967 0.05267559 0.018809767
0000c0 9f 73 a5 3d c4 15 28 bd 03 e3 92 bd 09 30 9c 3d
       0.080786936 -0.041036382 -0.07172205 0.076263495
0000d0 60 b9 39 3d f1 f3 7c bd 61 b6 77 3d e1 2d 50 3d
       0.045342803 -0.06175608 0.060476664 0.050825004
0000e0 d9 a1 a2 bd c6 1e 27 bd 6f 2e af 3d c7 47 3d 3d
       -0.07941026 -0.040800832 0.085537784 0.04621103
0000f0 49 21 9f 3d c9 cd 84 3d 58 63 b9 3d b0 b6 a0 3d
       0.077700205 0.06484563 0.090521514 0.07847345
000100 39 b4 53 3c e2 f7 8f bd e8 21 3f 3d 59 79 b9 3c
       0.012921386 -0.07029702 0.046663195 0.02264087
000110 d7 da 1f bd 6b d6 b6 3d f7 81 8c 3d 96 e3 08 3d
       -0.03902706 0.08927616 0.06860726 0.033420168
000120 88 95 3b 3d db 02 ce ba 02 19 a7 3d ce db 80 bb
       0.0457969 -0.0015717404 0.08159067 -0.0039324528
000130 17 54 1d bd d8 e8 d5 bc c4 c7 a3 3c b0 7a 63 3c
       -0.038410272 -0.026112005 0.019992717 0.013884231
000140 e5 24 a6 bd c4 17 01 3c dd 62 d4 bc 9f 3a 62 3d
       -0.08112506 0.007879201 -0.025926048 0.055231687
000150 b1 80 da bc 08 fc a3 3b 91 86 3c 3c 67 39 65 bd
       -0.026672693 0.0050044097 0.0115066925 -0.055962946
000160 78 37 91 bd 45 9d 8d 3c 25 f8 0f bd 9a 1f d7 3b
       -0.07090658 0.017286906 -0.03514876 0.0065650465
000170 f2 da af bd d8 87 89 3d de 73 8a bd 69 52 23 bc
       -0.085866824 0.06715363 -0.06760381 -0.009968379
000180 97 0a 99 3d c7 38 91 3d e5 6e bb 3c 05 b5 51 bd
       0.07472723 0.070909075 0.022880027 -0.051198024
000190 4a 1f 28 bd 0a c1 97 3c a0 ad c1 3c ae e2 a3 3d
       -0.041045465 0.018524665 0.023642361 0.0800222
0001a0 2f de 0f bd a7 15 87 3d f7 05 a1 bc 61 e1 8c bd
       -0.035124 0.06595927 -0.019656165 -0.06878925
0001b0 7b 8e b1 3d 5d c0 8d 3d a3 f7 75 bc 2d f3 86 3c
       0.08669754 0.06921456 -0.0150126545 0.016473377
0001c0 9d 08 a3 bd ba 79 9b 3c f1 22 9e 3d cb 50 b1 3d
       -0.07960627 0.018978942 0.07721508 0.08657988
0001d0 36 8c 82 3c 0f b7 87 3d ca b6 45 bd f4 e0 92 3c
       0.015935998 0.066267125 -0.048270024 0.017929532
0001e0 b6 3b 09 bc a4 d9 e8 3c 4e 4a 77 bd b8 67 96 3d
       -0.008376053 0.028424092 -0.060373597 0.073440015
0001f0 be 82 80 3c 63 86 2c bc 53 bd 8f bd 1b 20 73 bd
       0.015687343 -0.010530087 -0.070185326 -0.05935679
