rl/src/models/base_ppo/player_1_ppo_policy.pt (torch, 147125 bytes, 7 tensors)

fc1.weight f4 [128, 144]
00000000: b101 a8bd 6f97 2e3d 2e6a 94bd d9ac 14bd
00000010: e025 46bd fdc2 083d 70f8 133d 382c 8f3d
00000020: 94b9 ee3c 034c f23c a42e 693d bce7 65bb
00000030: 9bdb af3d 014a 893d a198 453b 0e91 6f3d
00000040: 1f68 c0bc ad6e 14bd a8c7 5fbd cf7b a63d
00000050: 748a 723d ce02 9bbd dd49 533d 1728 88bd
00000060: c4bf e63b adcd 403d 1f37 67bd 4d44 6fbd
00000070: 05e3 473c b4e1 4a3d dee5 87bd e5f0 9b3d
00000080: 7ad8 61bc 4bd5 153d d97b 9c3d 2a26 153d
00000090: 201c 243d 90b3 a13d 6877 9fbd bf48 0b3d
000000a0: 0a49 9e3d b3bf 12bd ed68 cb3c 2084 28bd
000000b0: 9abc 9fbd dfc5 07bd 4ad3 6abd 6e2e 1abc
000000c0: 1d8f bbbb 4ddb 383c 5f82 35bd a947 30bc
000000d0: f8e4 283c 5608 36bd 78d3 80bd 54f7 943c
000000e0: 5b0e 333d 669b 9e3d e81d 83bc e32d 943d
000000f0: 1dde a2bd e8c1 363b 26e9 a2bb 74b6 82bd
00000100: 9079 703d ab8d 5e3d 5948 8a3d 9e37 51bd
00000110: b3c6 acbd 1b96 5b3d 8c1f 0fbd e536 043d
00000120: 95d3 e13c 4fde afbc 63d5 c9bc cb60 7ebd
00000130: 4f89 00bd a0d6 793d 2a6b 3cbd b5ca 89bc
00000140: 7245 833d 1ea5 023d b492 16bd d1e2 603c
00000150: d7bb 753c f21c 883d 27cc b0bd d6bc 8b3d
00000160: 0aa6 3b3d ea54 2f3d d433 d23c 2bb9 443d
00000170: c7ba 3dbd 814c 463c b42c ecbc 7891 a4bd
00000180: 459c 52bd dd7b 073d 6bbf 5bbc dbb2 5ebd
00000190: c13e 90bc 9079 623d f5e8 febc 0225 86bc
000001a0: ebd8 453d 1b33 383d 6e6d 583c 45d2 7fbd
000001b0: a213 a8bd efae 893d e4c6 153d 940f 033d
000001c0: ee8e 3dbd 3485 aa3c d5a8 54bc 3429 843d
000001d0: e195 803d e441 5abd 3853 1abc b086 91bd
000001e0: a10d 4f3d 96dc e23c 09e8 713d 3d62 11bd
000001f0: 7f16 a9bd dd92 ccbc b75d 88bd 16bb 55bc
00000200: e2f5 1c3d 6d03 6337 876b 93bc c47b aebd
00000210: 1fc9 ad3d a2f1 313d c142 fa3c 8833 fa3a
00000220: 9763 34bd bb92 80bd 2453 a6bb fd6c 9e3b
00000230: e6f1 6ebd ca1f 9bbd 822d 953d e29c 8c3d
00000240: 4723 89bd 8751 f0bc 9da8 e4bc 0d99 87bc
00000250: 903c 79bd 63c9 523b 1e5e 84bb 9c5f 9abd
00000260: d452 a2bd 8f7d 7bbd 4413 8abd b475 3a3d
00000270: 32f4 85bc 901a 713d 3e40 d0bc e39d 1c3d
00000280: 1868 973d fe10 4d3c b234 babc 77a4 493d
00000290: 28f5 e73b 5ded 7bbd 7ff1 cfbc 4bc7 22bd
000002a0: ed35 963d 2cb8 3b3d 95e2 63bd c817 6e3d
000002b0: 0db9 04bd 3c58 923c d36d 86bd 18d8 343d
000002c0: 44f1 82bd cbb4 99bc 4e6b c9ba 1a8f 4cbb
000002d0: 7005 26bd 718c ccbc 6d75 18bd dffd 823d
000002e0: ea0c 33bd 67ba 433d b339 9abc e0dc 073d
000002f0: d2e9 b33c d4e7 84bd 2ebf 9ebd 1bbd a13b
00000300: edcc f9bc 1fcc 09bd 84ab c73c 53c8 3b3d
00000310: d6ed 8fb9 5082 5abd 367a ef3c d8be 1e3d
00000320: 55d4 443d 32cb ed3c 018d a53d b312 aa3d
00000330: 70a9 993d 3457 98bd 6fc9 aabc d261 e4bc
00000340: f09b 70bd 8af9 913d 73bc 863d dc64 68bd
00000350: dad1 0d3d ed13 243d 9529 773c 4e9f 22bc
00000360: a891 82bd 03f6 103c dcb7 dabc 8959 03bd
00000370: 2c6f b8bc 11b4 afbc c3e6 a43d 8f65 74bd
00000380: 11b8 b9ba b16c 1b3d cf79 e83c bfc8 9ebd
00000390: b3c5 aa3d efc7 863c e298 8abc c521 3d3d
000003a0: 2af3 7cbd 6f01 da3c 7634 56bd 77f5 913d
000003b0: cc4e e33c 230c 1a3d 7998 573c 0e40 36bd
000003c0: e8d4 653d 8565 4fbd d51f 113d 6ab4 a83d
000003d0: 0b8e fb3a 4fc5 25bd f4eb 643c 30c7 91bd
000003e0: 2281 5c3d 33cd 2b3d 0458 b53d c68a 27bb
000003f0: 20b6 60bd 7bdf aabd de71 a2bd 651f 233d
-0.082034476 0.042624887 -0.07246815 -0.036297653 -0.048375964 0.03338908 0.0361256 0.06990856
0.029141225 0.02957726 0.056929246 -0.0035080751 0.08586808 0.06703568 0.0030150788 0.058487944
-0.023487149 -0.03623836 -0.054633766 0.08129083 0.05921407 -0.07568894 0.051584113 -0.066482715
0.007041903 0.047071148 -0.056449052 -0.058414746 0.012200122 0.049531654 -0.066356406 0.07614306
-0.013784522 0.036580365 0.076408096 0.03641335 0.040065885 0.07895577 -0.07786447 0.034004923
0.07728775 -0.03582735 0.024830306 -0.04114163 -0.07799645 -0.03314769 -0.057330407 -0.009410484
-0.0057238475 0.011282754 -0.044313785 -0.010759273 0.010308497 -0.044441544 -0.062903345 0.018184341
0.043714862 0.07744484 -0.016005471 0.07235315 -0.07952521 0.0027886573 -0.004971641 -0.063824564
0.05870968 0.054334324 0.067520805 -0.05107843 -0.08436336 0.05360995 -0.034942195 0.032278914
0.02756671 -0.02146831 -0.024637884 -0.062104028 -0.031380948 0.060995698 -0.046000637 -0.016820291
0.0640973 0.03189575 -0.036761 0.013725952 0.014998398 0.06646146 -0.08632689 0.06823127
0.045812644 0.04280559 0.02565948 0.048028152 -0.046320703 0.012103201 -0.02882991 -0.080355585
-0.05141856 0.03307711 -0.013412337 -0.05436979 -0.017608048 0.055291712 -0.031116942 -0.016375069
0.048302572 0.044970613 0.013209684 -0.062456388 -0.0820687 0.06722819 0.03656663 0.03199728
-0.046278886 0.02081547 -0.012979706 0.06453171 0.06278587 -0.053285494 -0.009419255 -0.07105768
0.050550107 0.027693074 0.059059177 -0.035494078 -0.08256244 -0.024972374 -0.066585 -0.013045093
0.03832043 1.3531052e-05 -0.017995609 -0.085197 0.084856264 0.04344333 0.030549409 0.0019088844
-0.04404029 -0.062779866 -0.005075829 0.0048347698 -0.05833616 -0.07574423 0.072840706 0.068658605
-0.06696182 -0.02933575 -0.027912432 -0.016552472 -0.060848773 0.0032163493 -0.00403954 -0.07537767
-0.079259545 -0.06139904 -0.06741956 0.045522407 -0.016351793 0.058863223 -0.025421258 0.03823651
0.07392901 0.012516258 -0.022730205 0.04922911 0.0070787854 -0.061505664 -0.025383709 -0.03974084
0.07334504 0.045829937 -0.055636007 0.05812815 -0.03240304 0.017864339 -0.06563916 0.044151396
-0.06393674 -0.018762967 -0.0015367062 -0.0031213225 -0.04053253 -0.024969311 -0.03722136 0.06396078
-0.043713488 0.04778519 -0.018826341 0.033169627 0.02196208 -0.0648953 -0.077513084 0.004935873
-0.030493224 -0.03364193 0.024373777 0.04584534 -0.00027452287 -0.053346932 0.02923308 0.03875622
0.048054058 0.029027555 0.08083535 0.08304348 0.07503021 -0.07438508 -0.020848004 -0.027878676
-0.058742464 0.07127674 0.065789126 -0.056736812 0.03462396 0.040058065 0.0150855975 -0.0099256765
-0.06375438 0.008847716 -0.026699 -0.03206781 -0.022513948 -0.021448167 0.08051827 -0.059667166
-0.0014169236 0.037945453 0.028378395 -0.07753133 0.083384894 0.016452758 -0.016918603 0.046174783
-0.061755337 0.026612012 -0.052296124 0.07126897 0.027747534 0.03760923 0.013158911 -0.04449468
0.056111246 -0.050633926 0.035430748 0.08237536 0.0019192112 -0.04047137 0.013972271 -0.0711807
0.05383409 0.04194374 0.08854678 -0.0025564893 -0.054861188 -0.08343407 -0.07931875 0.039824862

fc1.bias f4 [128]
00000000: f794 9f3d fe88 1abc d0a9 16bd fae9 d03c
00000010: d654 983b 0818 703d 8100 4d3c e667 88bd
00000020: 2b1b 84bd 1b3d 8abd fa34 9f3d 48a3 cc3c
00000030: a3b4 71bd e759 693c 1a39 433d 00b4 69bd
00000040: 48f6 203d 5e5e 25bd bc4c 4e3d b73b 913d
00000050: a45b 93bc 29cf 23bd dd05 85bd 7667 21bc
00000060: 2fc7 4fbd 4a4d bebc 50a6 c53c 34ac a63d
00000070: 730f 823d 1dc4 e63c 7e82 2ebd 9c2f 893d
00000080: a8ba 873d 4e12 473d ca33 9f3d 8df2 75bd
00000090: 2db1 faba 6e9f 883d ba2d 66bd fd76 53bb
000000a0: fbe9 31bc 3bd3 92bd 7cac 9c3d 357f 943c
000000b0: acc3 a93c cf4b f93c 9fe5 3b3d 5622 5e3c
000000c0: d87c d83a f1bf 173d c5fc f5bc 8cd9 933d
000000d0: 768d e4bc e232 95bd a086 a23d b11a 09bd
000000e0: cfde 5b3b fc15 28bc 38aa 5fbd 30de 863d
000000f0: 6a28 803d 3161 943d d8ed 303d cee5 813d
00000100: 3c1f 393d 469d 403d af7f 45bd f4ea a23a
00000110: 98aa 8ebd e675 4f3c 1857 253c da5a 25bd
00000120: 8221 b1bb cffc 763d 3841 63bd 7c75 94bd
00000130: 1e4e 203c 5295 93bd 30c8 18bd 862c 92bd
00000140: 1f89 0c3c 2e5e 9e3b 21d2 a03b c9ed 77bc
00000150: de48 473d 1be9 7dbd 2235 9abd 58f7 63bd
00000160: 47f4 84bd e3cb f23c c359 93bb 14de 94bd
00000170: c78e 893d c7d8 32bd 09dd 01bd 3739 9c3d
00000180: 9f0a 4d3d 779c 013d 44b9 49bc 30ea 43bd
00000190: 6153 8e3d 07fc 813d 7123 95bd b5b4 873d
000001a0: 951f 8b3d a10e 1cbc 6d07 7ebd b768 2c3d
000001b0: ca3a ee3c 34a6 a13d c25f 733d 2e8c 80bc
000001c0: 5377 3cbd 88b4 5fbd 26dd 10bd b714 a33d
000001d0: 1db5 963d fd57 7ebd de4a 03bd 2f49 623d
000001e0: c38d 85bc 02f6 723d 4f4f 923d 747e 863d
000001f0: 0ca7 fdbc 4dc1 40bd 7a6a 4bbd b0e5 83bd
0.07792085 -0.009432076 -0.03678304 0.025502194 0.004648785 0.058616668 0.012512327 -0.06660442
-0.064504944 -0.06749936 0.07773776 0.024980202 -0.05901016 0.014242626 0.04766188 -0.057056427
0.039297372 -0.0403732 0.05036615 0.07091468 -0.017988034 -0.039992485 -0.06495259 -0.009851327
-0.050727066 -0.023230214 0.024127156 0.08138314 0.06350603 0.028169686 -0.042604916 0.06698534
0.06627399 0.04860144 0.0777355 -0.060045768 -0.0019126289 0.06671034 -0.056195952 -0.0032266967
-0.010859008 -0.07169195 0.07650086 0.018127063 0.020723186 0.030431656 0.04587328 0.013557991
0.0016516699 0.037048284 -0.030027756 0.07219228 -0.027899485 -0.07285096 0.07935834 -0.03347272
0.0033549552 -0.010259148 -0.054605693 0.06585348 0.06257708 0.072451 0.043195575 0.0634266
0.045195803 0.047024988 -0.04821747 0.0012429641 -0.06966132 0.0126623865 0.010091566 -0.040369846
-0.005405606 0.06029969 -0.05548212 -0.07248971 0.00978425 -0.07206215 -0.03730029 -0.071373984
0.008577614 0.0048330044 0.004907862 -0.015132376 0.048653476 -0.061989885 -0.075296655 -0.055655807
-0.06491905 0.029638236 -0.0044967844 -0.072689205 0.06716686 -0.043663766 -0.031704936 0.076281
0.050058957 0.031643357 -0.012312237 -0.04783076 0.06949497 0.063468985 -0.072821505 0.06626264
0.06793133 -0.009524972 -0.0620188 0.04209205 0.029080767 0.07893029 0.059417494 -0.015691843
-0.046012234 -0.054615527 -0.035367154 0.079629354 0.07358763 -0.06209563 -0.03205382 0.055245575
-0.016302949 0.059316643 0.07144033 0.06567088 -0.030963443 -0.047059346 -0.04966209 -0.06440294

fc2.weight f4 [128, 128]
00000000: 047c 6a3d d816 8fbd 2e63 ab3b 2508 04bc
00000010: a427 75bd 83ae 3e3d 1423 0dbd b251 6abd
00000020: 4b44 afbd 665c 093d e96b 933b 9766 2b3c
00000030: eb5f a73d 78fd adbb b534 9d3c f5f5 153d
00000040: 1b3b af3d a01d 8b3d 8a1c b1bb de29 4bbd
00000050: 3d0c 9c3d 5a79 9bbd 10c7 50bd fd16 943d
00000060: f733 e6bc f7a3 1ebd c1b7 cfbc bca1 a63c
00000070: faac 7abd b2e3 08bd d327 663c 2295 b93c
00000080: 8ce0 47bd 780e 92bc d8cf 083d 3367 673d
00000090: ec1d eb3b 0105 85bd fe15 cebc 8145 303b
000000a0: 6e04 49bc 0b22 25bc de7b 983d 8f9e 5bbb
000000b0: 886f 4d3d 0702 14bd 3b04 0b3d 3842 7a3d
000000c0: 132b ee3c 7491 553d e5ab 2ebd e7d8 93bd
000000d0: 26ac 563c 8598 ae3d e221 aa3d e153 a03d
000000e0: 4e77 1e3d 6df9 b5bd 52e9 3d3a e11c bc3b
000000f0: 535a fa3b 4c0b 6dbd 7995 483c 72bc 253c
00000100: 53f4 6a3c 48f4 72bd 0261 8a3d 9c90 cabc
00000110: 21f2 53bd aa3b 9ebd 62f4 53bd ae2a 60bd
00000120: 3620 993d 4f90 89bd 546a 953d 4a25 3d3d
00000130: bdb7 a43d 8aac 853d faf6 f3bc be94 ac3d
00000140: d050 29bd 8566 28bd ef4a 65bd d6ab 4abc
00000150: 0c20 83bd a270 7b3d e337 b63c 7501 9f3d
00000160: 8844 013d 8a10 87bc 9edf a0bd cd89 85bc
00000170: e41f 5b3c e897 ae3d c4ff e6b9 8d30 813d
00000180: d601 47bd c128 f7bc 4920 a3bd 94b6 933d
00000190: 09b1 06bc 9cd0 5b3c 0b95 b7bb 839a 4e3d
000001a0: 0c1f 5b3d 0712 13bc 7edf 9fbd 2b26 e2bc
000001b0: 1385 94bc 578d 3cbd 63ad b13b f713 8e3c
000001c0: 43f7 7b3c 698f 503d fd3c 683b b34e b23c
000001d0: aa19 85bc 2285 573d d55f b53d bd61 923d
000001e0: eb62 3c3d e071 433d 4317 9b3d 3eed 89bd
000001f0: f856 163d 8c02 4d3d 6d39 863c b570 86bb
00000200: bb2a 6e3c ab2a d9bc ad3e b5bb f632 4ebd
00000210: ce59 c53c 9bdf b53d 3b6c d73c ac45 f83c
00000220: 881e 683d 2bbc bbbc 2f31 a4bd af44 88bd
00000230: 6edf eabc 1ea6 afbd 43be f63c 2a96 a73d
00000240: 6326 a03d c5f3 01bd 5dc9 8fbd 3fec 703d
00000250: 4ac5 75bd a531 edbc a839 843d 1c89 963c
00000260: 4535 2bbd 279a 723d bd68 acbc f800 53bd
00000270: 6ea6 96bb a766 fa3c 01aa acbd 8fad c43c
00000280: db07 ed3b 4023 6b3d aedc 583d 9867 473c
00000290: dde5 5cbd 8b06 873d f08c f4bc 973d 3cbd
000002a0: 314a 84bd 4d52 5cbd 3a09 45bd 271a 0fbd
000002b0: b7d5 1c3d 6002 9f3d e7d5 873d 7d32 b7bc
000002c0: d257 8bbd b481 9abc ebe5 b0bd f78d 26bc
000002d0: 23c7 bebc e9fb 493a 4301 b1bd cab3 b1bc
000002e0: dc5e a63d d5d4 32bd b395 9bbd 1355 d3bb
000002f0: 4a2e 573d 4301 563d aedc 16bd 6580 b33d
00000300: 1d20 b4bb 9d43 58bd 5d1d b43c bc47 203d
00000310: c884 37bd d34e 8e3d 65f3 163d 102a 313d
00000320: edcd 943c d82a 5dbd 32fa 6e3d b1fe aabd
00000330: 8d7b 9f3d 3ffa 0f3d 683f a73d 47b0 533d
00000340: e4b7 973d 7226 16bd eb84 5e3d 10f7 28bd
00000350: b0cc 283d 68b9 083c 7130 b1bc 0eb2 8cbd
00000360: 2c36 6a3d 05e2 a43d 6d3a 413c f8be 5d3d
00000370: 7407 82bd c3aa 913c e201 a4bd bef7 01bd
00000380: 620c 3c3b 2b7c c9bc 30d2 41bd bc80 403d
00000390: 6105 4e3d 4267 803d 0f82 32bd 2583 81bd
000003a0: 503c a1bc 502d 8dbd 4b4c 4dbb f163 b43d
000003b0: 4368 673d f65d 983d 0629 3fbc fad7 40bd
000003c0: 8181 9ebd 3baa 49bd 3e49 3d3d c580 a13d
000003d0: 8666 403c ddf4 1e3d f2b9 213c ae84 8f3c
000003e0: 9a20 a53c 0dbb a7bd 7d81 0abd 84f6 37bc
000003f0: 2fd2 813d 5d3b fc3c 5490 8f3d fbd0 a7bc
0.057247177 -0.06986779 0.005230329 -0.008058582 -0.059852257 0.046553146 -0.03445728 -0.057206817
-0.08557948 0.033535384 0.004498948 0.010461471 0.08172592 -0.005309757 0.019190172 0.036611516
0.08556195 0.0679276 -0.0054050134 -0.049600475 0.07619522 -0.07591505 -0.05097109 0.07230947
-0.02810095 -0.038730588 -0.025356175 0.020340793 -0.06120012 -0.033420272 0.014047581 0.02265412
-0.04879813 -0.017829165 0.03340134 0.056494903 0.007175198 -0.06495095 -0.025156971 0.0026896896
-0.0122691225 -0.010078917 0.07445501 -0.0033511256 0.050155193 -0.036134746 0.03393958 0.061098307
0.029073274 0.052140668 -0.0426444 -0.07219105 0.013102567 0.085251845 0.08307244 0.07828499
0.038687997 -0.08885465 0.0007244545 0.0057407473 0.007640162 -0.0578721 0.012242668 0.01011573
0.014340478 -0.059314996 0.06756784 -0.024727158 -0.051744584 -0.07726224 -0.051746733 -0.054728203
0.07476847 -0.06716978 0.07295671 0.04617814 0.08042858 0.0652705 -0.029780854 0.08426808
-0.041336834 -0.041113395 -0.055979665 -0.01237007 -0.06402597 0.061386712 0.022243446 0.0776395
0.031559497 -0.016487379 -0.078551516 -0.01630106 0.013374303 0.085250676 -0.0004405958 0.063080885
-0.048585735 -0.0301708 -0.07965142 0.072125584 -0.008220919 0.013416436 -0.005602484 0.050440323
0.053496405 -0.008976466 -0.078062996 -0.02760609 -0.018129861 -0.04603323 0.0054222806 0.017343504
0.015378776 0.050918017 0.0035436742 0.021766042 -0.01624759 0.0526172 0.08856169 0.07147548
0.045992773 0.04771602 0.07572796 -0.067347035 0.036704034 0.050051257 0.016384805 -0.004102791
0.014536555 -0.026509603 -0.005531153 -0.05034157 0.024090674 0.0888054 0.026296725 0.03030666
0.056669742 -0.022916874 -0.080171935 -0.06653725 -0.028670993 -0.08576606 0.03012002 0.081829384
0.07819822 -0.031726617 -0.07020829 0.05881905 -0.060002603 -0.028954336 0.064563096 0.018375926
-0.04179885 0.059229042 -0.021046037 -0.051514596 -0.0045974767 0.030566527 -0.08430863 0.02400854
0.0072336025 0.057406664 0.05294483 0.012170695 -0.053930152 0.06593045 -0.02985236 -0.045957174
-0.064594634 -0.053789426 -0.048104502 -0.03493705 0.03828975 0.07764125 0.066325955 -0.022362942
-0.0680386 -0.018860675 -0.08637603 -0.010165683 -0.023288315 0.0007705079 -0.08642819 -0.021692175
0.08123562 -0.043660004 -0.07596912 -0.0064493506 0.05253438 0.052247297 -0.03683155 0.08764724
-0.0054969923 -0.052798856 0.021986658 0.03913091 -0.044804364 0.06948628 0.036853213 0.043253005
0.0181646 -0.053995937 0.058344074 -0.0834936 0.07787237 0.035150763 0.08166391 0.051681783
0.07408121 -0.036657758 0.05432598 -0.041251242 0.04121083 0.008344986 -0.021629544 -0.06869899
0.05718057 0.08050922 0.011793715 0.0541372 -0.06349078 0.01778162 -0.080081716 -0.031730406
0.0028693904 -0.02459534 -0.04731959 0.04699777 0.0502981 0.06269695 -0.043581065 -0.06323842
-0.01968208 -0.06893408 -0.0031325992 0.08808125 0.056495916 0.074397966 -0.011667496 -0.04708097
-0.07739545 -0.04923461 0.046212427 0.07885889 0.0117431935 0.03880774 0.009870993 0.017519321
0.020157147 -0.08189974 -0.033814896 -0.0112282075 0.063389175 0.030790025 0.0700995 -0.020485392

fc2.bias f4 [128]
00000000: 8274 bcbb ad71 7bbd 20b5 a8bd e218 2bbd
00000010: 0055 453d 75ee 3c3b aadb c73c 9e19 a53d
00000020: 7804 d23c 0e9e 933c 5242 863d 4197 81bd
00000030: cf5f 74bd be65 f73c 82c6 183d ca53 a6bc
00000040: f7c5 1abd d491 b1bd a8e6 783d 0465 59bd
00000050: b202 b73d 2534 96bd 75f2 1a3c 70ec 15b9
00000060: 5f21 9bbd 508b 8dbd 2b9b 9d3d 46f2 aabd
00000070: e4dd 133d 7f1e 37bd 8436 b5bd d3cd 7a3c
00000080: 50a5 41bd 4839 ef3c 7c58 b83c 0d8d 2bbd
00000090: e271 87bd 6462 863d 96bd d1bc 8199 06bc
000000a0: 9883 a13b dc67 20bd bb04 00bd 3af0 c53c
000000b0: 55f5 813d b4a0 aa3d 1d73 473d ff32 9d3d
000000c0: 3c78 1b3b 47ab e1bc ea9f a5bd a6a5 e33c
000000d0: b7e2 a8bb 1e91 3d3d 93bc 443b 85b9 4dbd
000000e0: 477a 34bd 5734 8cbd ee6d d93b 0a3c ad3d
000000f0: 7456 5d3d e551 9e3d 28ca 363d 586d 953d
00000100: 458f 6d3d fb72 55bd 8567 47bc 5840 62bd
00000110: 92c0 9e3d a1f8 5cbc 2ffc ca3a 3eb5 08bd
00000120: c5a4 a33c a3d7 83bc 4d84 02bd fdfd a0bd
00000130: 434c 4ebc 7c45 aebd 6884 80bd 5047 9f3d
00000140: a0d3 363d 5919 0f3d e035 923d 8af5 14bd
00000150: 36c7 f93c 0cb5 023d 2a95 b03d 75ea 8dbc
00000160: 9049 413c 5968 05bd 1976 723d 5daa a03d
00000170: 8958 41bd 754c 8e3d 1727 07bd 4bae 403c
00000180: bce9 17bd ee3f 59bc fb23 47bd dcf1 1cbd
00000190: 6b23 f43c ea15 a23b 6be6 793d 2629 8ebd
000001a0: ca22 81bd 7365 143d 5aba a43d 9caf a5bd
000001b0: fa60 013b 6319 a0bd 5a58 c5bc 2df6 ca3b
000001c0: 8467 c1bc 69df 8cbd cf78 9a3c 88c6 3bba
000001d0: 8397 0d3d 4785 25bb 7652 9fbd 5ef4 383d
000001e0: fc09 67bc 4071 2b3d 12f8 0a3d 917c f03c
000001f0: c5f1 dabc 4aa8 1fbd 227e a6bd 8cb8 203d
-0.0057511935 -0.061387707 -0.08237672 -0.041771777 0.048176765 0.0028828655 0.024396736 0.08061527
0.025636896 0.018019702 0.06555618 -0.063276775 -0.059661683 0.030199882 0.037298687 -0.020303626
-0.03778645 -0.08670393 0.060766846 -0.05307485 0.08936061 -0.073341645 0.00945722 -0.00014297827
-0.075747244 -0.069113374 0.076956116 -0.08346991 0.036100283 -0.044706818 -0.08848289 0.015307861
-0.047276795 0.029202119 0.02250313 -0.041882563 -0.06613518 0.06561735 -0.025603097 -0.008215309
0.0049290173 -0.039161548 -0.03125451 0.0241624 0.063456215 0.08331433 0.048693765 0.07675742
0.0023722788 -0.027547492 -0.08087142 0.027788948 -0.0051539796 0.046280973 0.0030019626 -0.050225753
-0.044061925 -0.068459205 0.006635419 0.08458717 0.054037526 0.07730464 0.044626385 0.07296246
0.05799796 -0.052111607 -0.012170677 -0.055237144 0.077515736 -0.013487012 0.0015486534 -0.03337597
0.01997603 -0.016094035 -0.031864453 -0.078609444 -0.012591424 -0.08509347 -0.062752545 0.07777274
0.044635415 0.034936283 0.07139182 -0.036366977 0.030490499 0.03191094 0.08622201 -0.017323712
0.011797324 -0.032570217 0.059194658 0.07844994 -0.047203574 0.06948177 -0.032996263 0.011760305
-0.03708814 -0.013259871 -0.048618298 -0.038316593 0.029802045 0.00494646 0.06101076 -0.06941442
-0.063054636 0.036229562 0.08043356 -0.080901355 0.001974164 -0.07817342 -0.02408998 0.006193897
-0.02360893 -0.068785496 0.018856434 -0.00071630673 0.03456832 -0.0025256441 -0.077794 0.04515492
-0.014101502 0.04185605 0.033927985 0.029356273 -0.026726613 -0.038978852 -0.08129527 0.039238498

action_head.weight f4 [5, 128]
00000000: c997 9dbd 8389 88bd 8ae3 043d 03da c0bc
00000010: 4473 f2bc 9ba1 963c 16ff b1bd 6d0a 27bd
00000020: ef95 4e3c 6c60 5c3c 5467 7abd 1d80 8cbd
00000030: e696 48bd fed3 4bbd c7a7 a9bd 8816 cb3b
00000040: b3d8 ad3d 5ddb 863c 8b69 fcb9 2507 f2bc
00000050: 8328 09bd b5e8 c9bc cc1c b0bd fb3f a1bd
00000060: 7728 a53d ddde 183d 372b 7abc 164f 8b3d
00000070: eb7a 223d 0915 9f3d 6bce 72bc df7a 26bd
00000080: f175 0b3d 7db3 6bbc 01ce 493d 316f 2fbc
00000090: 780a 9f3c 9de0 76bd 3a3f f9bc a746 43bd
000000a0: 2a98 983c 2bf1 94b8 27cc 1fbd a412 553c
000000b0: 70c7 d3bc 5558 dc3c d700 663d fafb 8fbc
000000c0: e6a8 7f3d dc8c 09bd 3ba2 9dbc 160c e03c
000000d0: 2c5c 363c a74b b0bc 797a 803d cdfa aa3c
000000e0: ef8f 3e3d 6ad0 a3bd ab37 8a3c 2e3b ac3d
000000f0: e01e 3cbc ff8e 43bd 94b2 5a3d ee95 a3bd
00000100: db20 a63d b0c4 2abc c147 7abc 5c54 7f3d
00000110: fbf0 d8bb 9d94 473d 4d3c 06bd 2eab 6f3d
00000120: d8da d83c b781 8b3d 7a39 883d 3392 583d
00000130: e63b 183d 5a7b 25bd 8e63 fa3c aeff cdbc
00000140: 1893 5a3d 06e7 063d 45b7 3a3d 0f98 b3bc
00000150: 418c 8e3d e872 47bd 7b9a db3c 876f 89bd
00000160: 4259 9a3d 9e3f 83ba fc65 973b b4fa 40bc
00000170: 91d1 783d ff5f 7fbd 2512 6e3d 919f 81bd
00000180: 6087 93bd 8a9d ad3d 514d 0d3d 5a7c 1e3d
00000190: ff65 6dbd 6366 82bd 7e43 b13d 3123 f73c
000001a0: ec06 2cbd 69cc b4bd c4dc 22bd 7de9 3a3d
000001b0: f022 9ebd 9fc4 a6bc 9685 053d 5b53 b2bd
000001c0: 7633 27bd e31c c43b c4ce 2fbd dab9 1b3d
000001d0: 939a d4bb 16ba b3bd b365 f73a 78ae 53bc
000001e0: 86ff fd3c 7ab3 153d 1843 773d 1351 6ebd
000001f0: 9940 9b3c 548a a2bd 5dcb 0bbc 6600 5abd
00000200: 5031 84bd c5bc 693c 82d3 3bbd aed0 473c
00000210: e376 103d 724c 853d 0726 3fbd cc83 b7bd
00000220: bb1a 903d 1cce 413d 88c7 5f3c f982 3b3c
00000230: 3655 81ba dbca acbd 7082 31bc 8188 bcbc
00000240: d6d5 9c3d f7b9 a93c 94ad a53d 6636 04bd
00000250: d906 8d3b e44e 96bd ccf8 7b3d aa2f 3b3d
00000260: 2734 b2bd 25ad 51bd 40b3 903d 2053 cdbc
00000270: cd36 b6bd e473 ccbc c2aa b3bd 46d5 aabd
00000280: 3425 57bc f69f 433c 04b5 0cbd c78e fbbc
00000290: 17bb a43d 52a9 77bd 5813 a0bc 8e22 833d
000002a0: e6d1 8e3c ed0d 2a3c 7cae a43d e2a6 c53c
000002b0: ae01 003d 6e29 9c3c 0447 83bc 2f4e f6bb
000002c0: c0c6 54bd e5a1 82bd d876 933d 1dd3 acbd
000002d0: 50c4 b53c 1210 a7bd 90fd 963c 9fd8 13bd
000002e0: 0a2a 723d e0fd 65bc af62 603d 7b09 1bbb
000002f0: 4a55 a13d fcd3 903d 2020 57bd 3813 9dbd
00000300: 4784 983d 8a6d 87bc 76f8 b33d 22ef c2bc
00000310: 9586 8abc 9fde 6a3d 98e9 a13c 95b0 9f3b
00000320: b21d 9a3b f948 aabd 4834 09bc 6829 913d
00000330: 1f0a f7bc 0128 153d a940 9abd 4824 c4bc
00000340: ecb2 a5bd 01de a3bd 03b5 85bc 2f99 743d
00000350: 3ffe 01bd 9d21 6bbd 8f3c 953c ab21 553d
00000360: 915c 0d3d 53e9 0c3d f080 413a 9ddb 923d
00000370: dfd3 7cbd b321 45bd f8a6 a7bd b23c 68bc
00000380: 234a 2cbd 2fd8 98bc f3f4 a83d d6f2 08bc
00000390: 8525 17bd a36f b03d 8fde c43b d720 6c3d
000003a0: e57a 233d c99b 91bd a3e1 173c 4f3c a0bd
000003b0: c5c5 033c d29d 93bd b978 293d d7e1 bb3c
000003c0: 7817 91bd f5cb 28bc f07f 693d 5ded 03bb
000003d0: 659e 8a3d e485 ce3c 4728 15bd 7157 5e39
000003e0: 6b1b ae3c 7852 df3c 1290 6f3d a409 6f3d
000003f0: 8add 23bd 07db 903b d054 ae3d d69c a43b
-0.07694966 -0.06666853 0.03244356 -0.023541456 -0.029595979 0.018387606 -0.08691232 -0.040781427
0.012608989 0.013450723 -0.061133698 -0.06860373 -0.048972033 -0.04976272 -0.08283954 0.0061977543
0.08488598 0.016462022 -0.0004814382 -0.029544422 -0.0334859 -0.024647096 -0.085992426 -0.078735314
0.08064359 0.037321914 -0.015269092 0.06802194 0.039668005 0.07767684 -0.014819722 -0.040644523
0.034048025 -0.014386055 0.049268726 -0.010707662 0.019414172 -0.0602728 -0.030425657 -0.0476748
0.018627245 -7.102111e-05 -0.039013054 0.013004933 -0.025851935 0.026897589 0.056153145 -0.017576206
0.062416933 -0.0335816 -0.019242397 0.027349513 0.011130374 -0.021520449 0.0627336 0.020871544
0.046523985 -0.07998736 0.016872248 0.08409725 -0.011481971 -0.047743794 0.05339296 -0.07987581
0.081117354 -0.0104228705 -0.0152758965 0.06233631 -0.006620524 0.048725713 -0.03277235 0.05851286
0.02647154 0.068118505 0.06651588 0.0528738 0.0371665 -0.04040084 0.03056505 -0.025146332
0.053362936 0.032935165 0.045584936 -0.021923093 0.06960345 -0.048693568 0.02680706 -0.06710725
0.07536556 -0.0010013466 0.004620312 -0.011778522 0.060746733 -0.06234741 0.058122773 -0.06329263
-0.07203555 0.08477314 0.034497563 0.03869281 -0.0579586 -0.06367185 0.08655451 0.030168148
-0.04199879 -0.08828051 -0.03976132 0.045632828 -0.077215075 -0.020357428 0.0325981 -0.08707305
-0.04082056 0.005984889 -0.042921796 0.03801904 -0.0064881532 -0.087757275 0.0018874913 -0.012920015
0.031005632 0.036548115 0.06036672 -0.058182787 0.018951701 -0.0793654 -0.008532372 -0.053223036
-0.06454718 0.014266198 -0.045856006 0.012195749 0.03526963 0.065087214 -0.046667125 -0.08960685
0.070363484 0.0473157 0.013658412 0.0114448005 -0.0009867314 -0.08437129 -0.010834321 -0.023014309
0.076579735 0.020718558 0.08089748 -0.03227844 0.004303795 -0.07339266 0.061516568 0.045699753
-0.087013535 -0.051190514 0.07065439 -0.025064051 -0.08897171 -0.024957605 -0.08772804 -0.0834146
-0.0131314285 0.011939993 -0.034352317 -0.03070773 0.08043497 -0.06046421 -0.019540474 0.06403075
0.017434072 0.010379297 0.08041093 0.024127427 0.031251602 0.019062724 -0.016025074 -0.0075166444
-0.051947355 -0.06378535 0.07200402 -0.08438704 0.022188336 -0.08157362 0.018431455 -0.036095258
0.059122123 -0.014037579 0.054781612 -0.0023656774 0.07877596 0.07071683 -0.05252087 -0.07669681
0.07447105 -0.016531724 0.087876245 -0.023795668 -0.016909877 0.057341214 0.019764706 0.004873345
0.004703247 -0.083147 -0.008374281 0.07087976 -0.030156193 0.036415104 -0.07531864 -0.023943081
-0.08090767 -0.08001328 -0.016321665 0.0597164 -0.03173661 -0.057405103 0.018217353 0.05203406
0.034512106 0.034402203 0.0007381579 0.07170794 -0.061725494 -0.04812784 -0.08186144 -0.014174627
-0.04206289 -0.018657772 0.08249845 -0.008358678 -0.036901016 0.08615043 0.0060079764 0.057648506
0.039912123 -0.07109792 0.009270105 -0.07824003 0.008042757 -0.07207836 0.041374896 0.022934837
-0.070845544 -0.010302533 0.057006776 -0.0020130493 0.067684926 0.025210328 -0.036415365 0.00021204144
0.021253308 0.027261004 0.058487006 0.058358803 -0.040006198 0.0044206413 0.085122705 0.005023579

action_head.bias f4 [5]
00000000: 5cc7 b33c fbb4 b8bc e855 02bd 9123 e3bc
00000010: 2467 b03d
0.021945648 -0.022547236 -0.031820208 -0.02772692 0.086134225

value_head.weight f4 [1, 128]
00000000: 6dc4 9e3a 99c5 7f3c 5a8a 14bd c20c cc3c
00000010: c64c e7bb e50a e5bc b4e0 2abd cb09 40bd
00000020: 2990 84bc ec3a 90bd 5762 75bd 7240 8dbd
00000030: 2212 f03b 08c7 a33d 299f dcba 4fa3 d43b
00000040: c82c 89bd 2bde 9f3d 0b45 ddbc e553 b7bb
00000050: 1d0b 603d 85fe 973d 9fc1 36bd 33ba 9d3a
00000060: 44ec bf3c d1ad d33c 9812 313b daa1 a6bc
00000070: aaa4 62bd de41 5ebc 9c38 253d 7204 363d
00000080: 22a4 49bd eb6c fc3c 6801 a53d 06b5 a9bd
00000090: dc1e 133d b932 2dbd 28c1 213c 0326 93bd
000000a0: d51d 0abc 166c 573c 80ac 83bd 78a9 143d
000000b0: f875 6abc 49ca 13bd cfb8 d93c 13e3 573c
000000c0: 15a9 333d 4032 5c3d 9772 fd3c b9a9 46bd
000000d0: c01a 86bc 94a2 6cbc 804d 6f3d a809 4dbc
000000e0: 2b99 883c 136f 48bc 112f 64bd 6084 f13b
000000f0: 5e42 6abd edc5 c63c de19 97bd 0dc5 bf3c
00000100: bc80 64bd cc0e 823d 2222 8b3b 3428 10bd
00000110: ea6a 083d bd83 3c3c 32da 20bd 1b54 8ebd
00000120: 6a2d a63d f5f0 593d d9cd 35bd 8963 423d
00000130: 9874 d0bc f34a 25bd 34c4 84ba bf7a af3d
00000140: ede1 383d 4617 47bd 0739 acbc fbad 81bb
00000150: 7b41 16bc e324 9d3c 3599 b0bd 9612 853d
00000160: 19fc 8b3d 81e4 a5bd 40f3 963c 238d 5cbd
00000170: fbdf 64bd 1ac4 1dbc e5d7 86bd e4f0 983d
00000180: f98e 69bd f6b4 44bd 7635 a6bd 9115 94bd
00000190: 649c 01bc 0194 893c 3528 473d 5fc0 203d
000001a0: f41d 6bbd 38c7 c1b9 4108 a0bd 6c24 8e3c
000001b0: 4389 8f3d b6d1 49bd 0a60 ad3c 17ca a43d
000001c0: c007 6f3d 8da7 66bd ea87 a7bd 9070 dbbc
000001d0: 656a bd3c 7158 133d 1b11 f13c 4e94 183d
000001e0: c509 a5bb 8056 d839 9e99 b23d 147d 62bc
000001f0: e3ba a4bb 31c9 75bd d5c3 86bd 4177 abbc
0.0012112983 0.015611076 -0.036264755 0.024908427 -0.0070587127 -0.027959296 -0.0417182 -0.04688434
-0.016182022 -0.070424885 -0.059908237 -0.068970576 0.0073263803 0.079969466 -0.0016832101 0.0064891945
-0.066979945 0.07806047 -0.027010461 -0.005594718 0.0546981 0.074215926 -0.044618245 0.0012033641
0.02342809 0.025839718 0.002701914 -0.020340849 -0.055332817 -0.013565509 0.04033719 0.044437833
-0.049228795 0.030813655 0.08056909 -0.082864806 0.0359181 -0.0422847 0.009872712 -0.071849845
-0.008429964 0.013148328 -0.06429386 0.03629443 -0.0143103525 -0.036081586 0.026577381 0.013176697
0.04386242 0.05375886 0.03093843 -0.048501704 -0.016370177 -0.0144430585 0.05842352 -0.012514509
0.016674599 -0.012233513 -0.05570895 0.0073705167 -0.0571922 0.0242643 -0.07377981 0.02340939
-0.055786833 0.063504785 0.0042460123 -0.03519459 0.033305086 0.011506018 -0.039270587 -0.069496356
0.08114131 0.05320831 -0.044385765 0.047458205 -0.025446221 -0.04035468 -0.0010129274 0.08568334
0.045137335 -0.04860618 -0.021023287 -0.0039575077 -0.009170885 0.019182628 -0.08622972 0.064976856
0.06835193 -0.08100224 0.018426538 -0.053845536 -0.055877667 -0.009629274 -0.06584147 0.07467821
-0.057021115 -0.04802414 -0.081156656 -0.07230676 -0.007910822 0.016794207 0.04862233 0.03924596
-0.057401612 -0.00036960258 -0.07814074 0.017351352 0.070086025 -0.04927226 0.021163959 0.08046358
0.058357 -0.056312133 -0.081802204 -0.026787072 0.023122022 0.035973016 0.029427102 0.03725081
-0.005036565 0.00041263178 0.087207064 -0.013823766 -0.0050271614 -0.060006324 -0.06580321 -0.020930888
