rl/src/models/base_ppo/player_3_ppo_policy.pt (torch, 147125 bytes, 7 tensors)

fc1.weight f4 [128, 144]
000000 a3 c0 3a bd d3 61 17 bb 5b 76 05 bd 42 8b 06 bd
       -0.04559387 -0.002309908 -0.032583576 -0.03284765
000010 a7 df 9f bd 37 c3 a9 3a 5b bb 63 bd 3c df 50 bc
       -0.0780633 0.0012951855 -0.055598598 -0.012748536
000020 23 80 d6 bc 1b ad 51 bd ab 1a 80 3d d1 9e 03 3d
       -0.026184147 -0.051190477 0.062550865 0.03213388
000030 16 eb 5b 3d 5d bb f8 bc 16 9b cb 3b fd 63 8a 3d
       0.053690992 -0.03036278 0.006213556 0.067573525
000040 c8 19 0a bc 92 fa 3f bd f8 5e 66 3d 48 45 d5 3b
       -0.008428998 -0.04686982 0.056242913 0.006508503
000050 d3 06 cb 3c 6d 09 b1 3c 58 94 84 3d 6a b6 63 bc
       0.024783527 0.02161094 0.06473607 -0.013898471
000060 d6 06 40 bc 16 2d 35 bc 26 63 e6 3b f3 1a d0 bc
       -0.01172038 -0.011058113 0.0070308624 -0.025403475
000070 1b f4 a7 bd 70 e9 0a bb ce a2 7a 3d c2 1d ae bc
       -0.08200856 -0.0021196268 0.06119042 -0.021254424
000080 54 c6 f9 39 d2 6d 0c 3d 29 cf ec bc 30 07 88 3d
       0.00047640747 0.03428442 -0.028907375 0.06641996
000090 53 2b d0 bc 94 36 14 3c b0 12 e6 bc 5c 3a 85 bd
       -0.025411284 0.009046216 -0.028085083 -0.06505272
0000a0 5d c4 47 3c b9 97 77 3d c6 8e 3b ba 40 ab a6 3b
       0.012192813 0.06044743 -0.0007154759 0.0050863326
0000b0 c0 49 a4 bc e6 67 96 3d 9c 64 62 bd 3e a3 11 3d
       -0.020054698 0.07344036 -0.05527173 0.03555607
0000c0 c5 c3 2c bd 5a ee 96 3d 51 21 64 3d 93 c5 95 3d
       -0.042178888 0.07369681 0.055695836 0.07313075
0000d0 a8 d0 e9 ba ea a6 16 3c bb 97 25 3d 40 2d 30 3d
       -0.0017838674 0.009195069 0.040427905 0.043011904
0000e0 3f 7f ab bc ab 4c 2b bc 96 b3 86 3d b9 48 25 3d
       -0.0209347 -0.010455291 0.06577222 0.040352557
0000f0 98 2c 1c 3d 24 54 91 3c de a5 e2 3c d0 89 22 3d
       0.038128465 0.017740317 0.027666982 0.03968221
000100 9c 6d fa bc a7 b8 00 bd f4 d7 36 bd b7 6d 86 bc
       -0.030569844 -0.0314261 -0.044639543 -0.016409738
000110 dc 18 74 bc 35 6b a2 3b 93 e2 4d 3d 5f c9 8c 3a
       -0.014898505 0.0049566277 0.050264906 0.0010741166
000120 e4 c9 9d bd bf bd 83 3d 8f b3 9d 3c 4a 86 7c 3d
       -0.07704523 0.064326756 0.01925066 0.061651506
000130 e9 ab 8b 3d 8c 71 c5 3c 1e 8d 66 3d 13 3a 5b bc
       0.06819899 0.024101995 0.056286924 -0.013380545
000140 25 1d 60 bd 34 83 29 3d bf 97 8c 3b f5 78 2e bb
       -0.054715294 0.04138489 0.0042905505 -0.002662239
000150 16 af 56 3d d8 e1 08 3a 3e c3 92 3b ba 47 51 bd
       0.05241307 0.00052216416 0.004478841 -0.051093794
000160 c7 89 8a 3d 3c 1e b0 3c 9f f2 b3 3c e8 0d 2c 3b
       0.0676456 0.021498792 0.021966277 0.0026253406
000170 a3 eb 80 bd 21 2f a7 bc 1a 29 2d 3d 4d 1e 8d bd
       -0.06294944 -0.020408215 0.042275526 -0.06890545
000180 45 e9 ae 3c 69 07 e7 3c 01 a3 79 bb f3 7d ce 3c
       0.021351466 0.028201776 -0.0038091543 0.025206542
000190 a9 97 e5 bc e4 15 6c 3d 8b ce d6 3b fe 8f a7 3c
       -0.028026419 0.057638064 0.0065553836 0.020454403
0001a0 b3 75 6c 3d 13 67 2e bd 25 dc 08 bd 4b d0 a4 3d
       0.057729434 -0.042578768 -0.03341307 0.08047541
0001b0 06 17 70 3d 6a 76 3a bd fc 33 86 bd 87 b0 87 3d
       0.058615707 -0.045523085 -0.06552884 0.06625467
0001c0 5d 8f 86 bd c0 de 94 bc da ce d6 bc 4c c0 02 3d
       -0.06570313 -0.018172622 -0.026221681 0.03192167
0001d0 df fe 9d 3d 2a ca 7c 3d 6c a9 a7 3d 53 84 2d bd
       0.077146284 0.061716236 0.081866115 -0.042362522
0001e0 69 b5 73 bd a2 4f 10 bd 6c a4 60 bd c5 5a 41 3d
       -0.059499178 -0.035232194 -0.054844305 0.047205705
0001f0 3a 63 89 bc 4b 56 59 3d f0 e1 8b 3d b2 e9 fb bb
       -0.016770948 0.05306081 0.068302035 -0.0076877708
000200 1d fe 83 bc 0a 29 d8 3c ee dd 6e 3b 73 76 a3 bd
       -0.016112382 0.026386756 0.0036448198 -0.07981577
000210 a1 41 6b bd 29 e6 68 3d 6c 0d 88 bd d8 b4 c5 bc
       -0.057435635 0.056860123 -0.06643185 -0.024134085
000220 78 ba 5b bd 1c 8d 66 3c ee 55 18 3d 70 54 ab bc
       -0.053644627 0.014071729 0.037191324 -0.020914286
000230 41 77 06 bd ba 63 2f bd d4 56 98 bd de 45 0e bd
       -0.032828573 -0.042819716 -0.07438436 -0.0347346
000240 a6 bf 62 bd 5f 83 7a bd 9d 07 ab bd f6 d4 99 3d
       -0.05535855 -0.06116044 -0.083510615 0.07511322
000250 e6 b1 4d 3d ae 41 93 3d 4b 80 0a 3d 0f df a1 bd
       0.050218485 0.07190262 0.033813756 -0.07903873
000260 2a 16 0b bd 6b 9a eb bb 39 e7 2a 3d 7a 73 71 3d
       -0.033956684 -0.007190039 0.041724417 0.058948018
000270 87 82 8e 3c 42 f6 97 bd e7 21 3e 3d 40 89 78 bd
       0.017396225 -0.07420017 0.04641905 -0.060677767
000280 5c f0 92 bc cb 98 f3 bc 67 8c 92 3c 20 c8 91 bd
       -0.017936878 -0.029735943 0.017889215 -0.07118249
000290 04 62 bb bc 43 76 14 bd 26 56 ec bc dd b1 ce 3c
       -0.022873886 -0.036245596 -0.028849673 0.025231296
0002a0 ac 26 9c 3d 11 43 4f 3d 0a 40 7a bd c7 e1 ab bd
       0.076245636 0.05060107 -0.06109623 -0.08392673
0002b0 15 ec 87 bc 0d 41 90 bc 2f af 84 bd de dd 4c 3d
       -0.016592065 -0.017609144 -0.06478726 0.050016277
0002c0 77 63 de 3c 84 b4 85 3d e9 6c 3c bd 0d 22 a3 bd
       0.027147038 0.06528571 -0.046002302 -0.07965479
0002d0 cf 8f a6 bd 50 3e 09 3c eb 7d bc 3b 77 2d 75 bd
       -0.08132898 0.008376673 0.0057523153 -0.05985781
0002e0 22 0a 05 bb 59 41 6b bd 92 a6 9b 3d 66 1d 94 bd
       -0.002030023 -0.057435367 0.0760013 -0.0723217
0002f0 61 e6 35 3d 1a 4a a5 bd cf 66 32 3d f9 51 99 bb
       0.04440916 -0.080707744 0.043555077 -0.0046789614
000300 18 42 ca bb 2c e2 d8 3c f1 15 2f bc b1 ce e5 bc
       -0.00617243 0.026475035 -0.010686384 -0.02805266
000310 4a 69 64 3c 2e dd 60 bc 1c 19 87 bd f3 35 96 bc
       0.0139411185 -0.013724608 -0.06596586 -0.018336272
000320 de e4 95 3d 0d 5c 19 3c 29 bb 87 bd 5c d6 94 bd
       0.073190436 0.0093603255 -0.06627495 -0.07267448
000330 9d d9 d9 bc 31 f0 2d bd d9 7c 7c bc 1a 3e 97 3d
       -0.026593024 -0.042465393 -0.015410625 0.07384892
000340 fe 00 89 3d 28 93 85 3d a1 38 03 3c 8a 9c 70 3d
       0.06689642 0.065222085 0.008009107 0.058743037
000350 64 55 8f bc 7c 2f 26 3d 4c 7b 8f 3d d5 46 a0 bd
       -0.017496772 0.04057263 0.07005939 -0.0782601
000360 5a 8d 76 bd cd 03 98 3d e9 3b 91 bd 60 64 cc 3c
       -0.060193397 0.074226 -0.07091505 0.024950206
000370 1e 96 db 3c 9f 0b 50 bc 6f a9 f9 bc 61 68 05 3d
       0.02680498 -0.012698083 -0.0304763 0.032570247
000380 6a c7 df 3b 94 b2 a6 bd 04 fa 18 bd b0 d6 90 3d
       0.006829192 -0.0813953 -0.03734781 0.070721984
000390 98 e5 b4 bc 80 bd 2a 3c 8c 76 9a 3c 55 a2 63 bd
       -0.022082135 0.010421157 0.018855356 -0.055574734
0003a0 6c e7 65 3c c7 17 55 3d b1 a5 94 bd a8 d8 6e bc
       0.014032226 0.05202463 -0.07258166 -0.014578022
0003b0 f1 34 83 bd 2b f6 34 bc c5 2b 96 bd 36 95 f4 bc
       -0.06406582 -0.011045019 -0.07332567 -0.029856306
0003c0 3b d4 fb bc 5f 4b 45 3c e0 92 a6 bd 0e ce f2 bc
       -0.030740848 0.012041896 -0.08133483 -0.02963927
0003d0 7e d1 00 3b 75 87 88 3d 33 bf 03 3d b5 52 6e bd
       0.0019656117 0.066664614 0.032164764 -0.058184344
0003e0 f6 bd 69 3b d5 97 0d bd 6d 77 a9 3d 6f 94 3d 3c
       0.0035666204 -0.034568626 0.08274732 0.011571034
0003f0 8b f6 91 3d 27 25 2d bd a5 3d c6 3c f7 5e d3 bc
       0.071271025 -0.04227176 0.024199316 -0.025802119

fc1.bias f4 [128]
000000 2c 04 a1 bd 2e 50 99 bd 0d a5 ca 3c 76 06 f6 bb
       -0.07862124 -0.07485996 0.024736905 -0.0075080944
000010 ca a9 97 bc b2 88 59 3a 58 6f 24 bd c5 a1 28 3c
       -0.018513579 0.0008298262 -0.04014525 0.010292475
000020 74 c1 80 3c 26 4f 13 bd 8e 68 f2 bc 68 f3 a4 bd
       0.015717246 -0.035964154 -0.029590871 -0.080542386
000030 83 3f ba 3b 39 8f ac 3d fb 0a 27 bd 14 17 4e bd
       0.0056838407 0.08425755 -0.040781956 -0.050314978
000040 00 3f c1 bb a6 e6 78 bd d6 18 ad bc 3b 48 c7 3b
       -0.0058974028 -0.06076684 -0.021130007 0.0060816086
000050 f3 6b a3 bd 75 08 28 bd 31 31 1c bd 52 7e 08 bd
       -0.07979574 -0.04102369 -0.03813285 -0.033323593
000060 5b 1a 25 bd 04 24 cd bc cf 78 cd bb 1d 7f 71 3d
       -0.040308338 -0.025041588 -0.006270505 0.058959115
000070 29 bf a6 b9 4e 1a 6a 3d d2 f9 57 bc e6 25 3a 3c
       -0.00031804413 0.057153992 -0.01318212 0.011361575
000080 0a ec a2 3c 16 b8 21 3d fc 73 06 3d 07 37 3b 3d
       0.019887943 0.0394822 0.032825455 0.045706775
000090 1f a2 54 3c 47 bd 8a 3d 8b e3 0e bc ff 35 a7 3c
       0.012978106 0.06774383 -0.008721243 0.02041149
0000a0 3a fc 6d 3d bb bd 81 bd f8 67 85 3d 30 21 74 3d
       0.05810187 -0.06335016 0.06513971 0.059601963
0000b0 18 63 4c 3d ee 73 4c 3c f8 ff 18 3c 6a f1 b1 3c
       0.04989919 0.012478812 0.009338371 0.02172156
0000c0 89 62 9c ba b5 ee 33 bd ce ae a7 3c 3e 27 2e bc
       -0.0011931221 -0.04392882 0.020469096 -0.010629473
0000d0 49 99 0f bd ed cd ee bc a2 24 b2 ba 05 0c 3f bd
       -0.035058293 -0.029150927 -0.001359124 -0.046642322
0000e0 a0 2b 43 bc 5a 8d 87 3d 3c d5 67 3d fc 3a 9a bd
       -0.0119122565 0.066187575 0.05659984 -0.075307816
0000f0 2d 1e da bc dd 80 d0 3b 33 f3 8a 3c 05 8a ae 3d
       -0.026625717 0.006363018 0.01696167 0.08522419
000100 51 40 c2 3c e1 f3 bf 3c 22 b2 e6 3c a1 d5 2f 3d
       0.02371231 0.02343172 0.028161112 0.04292834
000110 06 ac 29 3d 42 9f 9f 3d 4c 15 eb bc ff 5b a4 3d
       0.04142382 0.07794048 -0.028696679 0.08025359
000120 6c 5a 76 3d 94 7b 51 3c c8 9a 9d bd 4d 11 0a bb
       0.060144827 0.012785811 -0.07695538 -0.002106744
000130 6a e9 27 bd e1 fc eb bb 3a 30 7b bd a9 ef 6c bb
       -0.040994085 -0.0072017764 -0.06132529 -0.003615359
000140 b3 a1 86 3d 03 9e fc 3c 6a 35 8f bb f3 7e 48 3d
       0.065738104 0.030837065 -0.004370381 0.048949193
000150 1e ed 80 bd 66 1f 89 3d 35 60 7d bd df 73 08 3b
       -0.062952265 0.06695442 -0.06185933 0.0020821018
000160 12 17 57 bd d7 32 25 3c 3e cc e3 bb bf f6 07 3d
       -0.052512236 0.010082922 -0.006951838 0.0331943
000170 b4 8b a6 ba c2 a2 77 bd 06 d7 99 3d d0 f2 5b bc
       -0.001270643 -0.060457952 0.075117156 -0.01342459
000180 a3 5a 0f bd 85 75 58 3d dd 4b 90 bc 43 ac 93 bd
       -0.034998547 0.05284645 -0.0176143 -0.07210591
000190 aa 37 84 3d 5a 26 2b bd 54 4c 4e 3d 5f 3f 2c 3d
       0.064559296 -0.04178462 0.05036576 0.042052623
0001a0 cf 68 6f bd 32 92 58 bd b1 b4 79 bd f6 ec 97 bc
       -0.058449563 -0.052873798 -0.060963336 -0.018545609
0001b0 1c 24 91 3d ee f7 0d bd a9 2e c1 3c ce d2 fa 3c
       0.070869654 -0.034660272 0.02358182 0.030618098
0001c0 b1 1a 89 bd bb 55 8a bd 0c 56 9d 3d 7c b3 60 3d
       -0.06694544 -0.06754633 0.07682428 0.05485867
0001d0 80 ef 40 bd f3 ae 01 bd e6 71 4a 3d 54 86 a3 3d
       -0.047103405 -0.031660985 0.04942503 0.079846054
0001e0 85 b9 c4 bc 86 4d 38 bd 7d f7 01 bd 84 e6 28 3d
       -0.024014244 -0.044995807 -0.031730164 0.04123546
0001f0 59 91 5e 3d fc bf a9 3d dc de aa bc 6b 68 4e bd
       0.054337833 0.08288571 -0.02085822 -0.05039255

fc2.weight f4 [128, 128]
000000 a3 92 34 bc 30 e0 1a 3d f8 be d5 3a a1 75 52 bd
       -0.011021289 0.037811458 0.0016307523 -0.05138171
000010 3a 2d 9f bd be a0 81 3c f2 8e 04 bd 10 54 ac bd
       -0.07772298 0.015823718 -0.032362886 -0.08414471
000020 f7 2c 9d 3d e6 d7 f9 3c 73 3c af 3d 12 69 8f bd
       0.07674592 0.030498456 0.08556452 -0.070024624
000030 dd b1 25 3d 58 de 09 3d 06 b0 a5 3d 15 0c 8c 3c
       0.040452827 0.03365931 0.080902144 0.017095605
000040 af bc 5c bd ec 3a 77 3d ad a7 d9 3c e0 84 0e 3b
       -0.05389088 0.060358927 0.026569212 0.002174668
000050 4a a7 bf b9 83 c8 b8 3d 65 2d 51 3c 09 8f 9d 3d
       -0.00036555 0.090226196 0.012767171 0.076932974
000060 14 db 63 bd 4c 56 6b bc 85 1b a4 bc 14 ff 04 bd
       -0.05562885 -0.0143638365 -0.020032654 -0.032469824
000070 fc 1c 08 bd 31 dd be 3c 33 c0 1c bd 21 87 99 bc
       -0.033230767 0.023298832 -0.038269233 -0.018741192
000080 d7 2a a2 3d 0a 02 c6 3c 12 bf 77 3d 55 84 60 bc
       0.07918327 0.024170894 0.060484953 -0.013703425
000090 f5 53 f0 3c 28 fc 63 bd 69 2f 45 3d 14 68 a3 3d
       0.029336909 -0.055660397 0.048140917 0.07978836
0000a0 7e b5 aa bc f8 cb 26 3c 50 0b 86 bd 0f 6f 0b bc
       -0.020838495 0.010180466 -0.065451264 -0.008510365
0000b0 2e 74 6e bd 46 73 51 3d 62 9b 28 bd 75 70 ac bd
       -0.058216266 0.051135324 -0.04116381 -0.08419887
0000c0 3d 26 9e 3d 2c 91 97 3d 62 19 a7 3d 19 0a f0 bb
       0.07722137 0.07400736 0.08159138 -0.0073254225
0000d0 76 1d ef bc d8 e6 bb 3c 11 26 aa 3c 60 92 0e 3d
       -0.029188853 0.022937223 0.020770105 0.034807563
0000e0 ac 1a b1 3d 05 73 d7 3c 77 a5 4d 3d 88 8e 75 3d
       0.086476654 0.026299963 0.050206628 0.05995038
0000f0 b7 92 83 bd ba cd 50 bd f5 d9 53 bd 32 6c d3 3c
       -0.06424468 -0.050977446 -0.051721532 0.025808427
000100 d4 87 02 3d d8 d5 4d 3d 18 8a 9b bd 54 30 81 bd
       0.031867817 0.050252765 -0.07594699 -0.06308046
000110 fe f1 93 bd 30 c8 20 3d cb 56 cb bc 8a ba 3f 3d
       -0.07223891 0.039253414 -0.02482166 0.046808757
000120 c4 a4 3d bd 0b 1c 44 bd f2 8a e6 bc 39 95 ee 3a
       -0.04629971 -0.047878306 -0.028142426 0.0018202431
000130 2d 94 cb bc 9b b4 86 3d fa cd 2c 3d bb fb a6 bc
       -0.02485093 0.065774165 0.042188622 -0.020383706
000140 87 11 8e bc c5 da 83 bd 13 76 55 3d e0 41 1a bd
       -0.017342342 -0.06438211 0.052114557 -0.03766048
000150 89 78 b3 3d 22 9d 22 3c 61 ea 23 bd 98 81 89 3d
       0.08763225 0.009925159 -0.040018443 0.06714171
000160 75 15 c9 bc b4 07 48 3d a6 ca 57 bb 23 a1 5e 3c
       -0.024546364 0.04883547 -0.0032927184 0.013588223
000170 95 fb 91 3d 56 d3 86 3d f9 96 9a 3c c8 a4 6c bd
       0.071280636 0.06583278 0.018870817 -0.057774335
000180 5e 42 37 3d b7 43 ba bc 9e 2f 8d bd 3b cf 8f bd
       0.044741027 -0.022737367 -0.06893848 -0.07021948
000190 ff b9 84 3d 9c b5 4a bd ae 20 1c 3d f3 5a 30 bd
       0.064807884 -0.049489602 0.038117103 -0.043055486
0001a0 02 6a 50 bd 01 d6 a2 bd cd 88 63 3d f4 fa 98 bd
       -0.050882347 -0.07950974 0.055550385 -0.074697405
0001b0 68 01 34 3c 22 30 78 3d c1 7b 81 bc 48 7e 12 3d
       0.010986663 0.060592778 -0.01580608 0.035764962
0001c0 67 99 03 3c 5a ab b0 3d dd cb 6e bd ce 3c 48 3c
       0.008032179 0.08626433 -0.058299888 0.012221528
0001d0 57 0e 20 bd af d9 89 bc dd 56 15 bd 21 c0 35 bd
       -0.039076176 -0.016827432 -0.036459792 -0.04437268
0001e0 e9 3c d9 ba 9a 73 9c 3b a1 6d b8 3c c9 8b f7 3c
       -0.0016573939 0.004774523 0.022513213 0.030218022
0001f0 64 02 9c bd 04 d6 0b bd 11 90 50 3c 3a d3 75 3c
       -0.076176435 -0.034139648 0.012729661 0.015003974
000200 b7 da 5d bc 64 d4 a9 3d 88 14 42 3d 57 fd 9b 3d
       -0.013540915 0.082924634 0.04738286 0.0761668
000210 9e c7 8e bd 77 e3 59 3c 4e 17 2b 3d ab b1 e3 bc
       -0.06971668 0.013298861 0.041770272 -0.02779468
000220 d5 7e 9e 3d 0c da 57 3d e2 ad 24 3d 15 23 ff 3c
       0.07739035 0.05269818 0.04020489 0.031144658
000230 7c f0 89 bd 09 10 68 bd 4e 41 ff bc 25 ca 79 bd
       -0.06735322 -0.056655917 -0.03115907 -0.060983796
000240 df 87 05 bd a7 d1 9f 3d ac a6 76 bd 2a 63 2a bc
       -0.03260028 0.0780366 -0.060217544 -0.010399619
000250 a1 d0 83 bd 31 a6 48 bc 99 6c 6f 3d f2 b3 c7 39
       -0.06436277 -0.012246654 0.058453176 0.00038090307
000260 cf 89 8f bd e3 c0 62 bc 7f de b6 bc db 73 24 bc
       -0.07008707 -0.013839933 -0.022322891 -0.010037388
000270 af 58 23 3d 33 df 43 3d 9c a5 22 3d 7b d9 04 3c
       0.039879497 0.04782028 0.03970872 0.008108492
000280 17 6f b4 bc c8 70 6e bd eb 18 15 3d 84 09 4d 3b
       -0.022025628 -0.058213025 0.036400717 0.003128619
000290 a6 2a 50 bd 00 e7 b1 bc 31 8f aa bd c6 9a f2 3a
       -0.050821923 -0.021716595 -0.08328093 0.0018509261
0002a0 47 b9 43 3d 2d 87 66 3d c4 76 e4 bc b6 bb 8d bd
       0.047784116 0.056281257 -0.027888663 -0.06920569
0002b0 66 98 f3 bc 50 cc 42 3d f1 67 22 3d 58 e2 87 3d
       -0.029735755 0.04755813 0.039649907 0.066349685
0002c0 ad 74 e5 3c af 8c a5 3d 6a 79 ba 3d 4e b2 8d bd
       0.028009737 0.08083474 0.09105189 -0.069187745
0002d0 cb 72 ff bc 88 22 71 3d c8 a7 70 3d 95 0c 2e bd
       -0.031182667 0.058870822 0.05875376 -0.042492468
0002e0 a0 ee 5d bd c1 33 92 bd 38 1d 1b bd a1 85 6a bd
       -0.05418265 -0.071387775 -0.037869662 -0.057256345
0002f0 48 0a b6 3d 7d eb 56 bd 33 e6 ae 3c 03 d3 9e bd
       0.0888868 -0.052470673 0.021350002 -0.07755091
000300 da 4a a6 3c f5 3a 8d 3d ea a1 7e 3c 2e 0c 09 ba
       0.020299364 0.06896011 0.015541533 -0.000522795
000310 e5 31 2c bd f0 be 02 bd 33 4d 8d bd 25 ef 9a 3d
       -0.04203977 -0.031920373 -0.0689949 0.075651444
000320 9b cc ae bd ac af 7c 3c 77 a0 a3 bc 6e 51 d9 bc
       -0.08535119 0.015422743 -0.019973977 -0.026528087
000330 9b 06 53 3c e0 03 af 3c 2a a8 95 bd 2f 77 15 3d
       0.012879993 0.021364152 -0.073074654 0.036490615
000340 ac 64 7f 3d 35 b1 5c bc 07 a6 b0 bd fe 6b d8 3b
       0.062351868 -0.013469984 -0.08625417 0.0066046705
000350 9c fe 16 bb 0e 79 75 3d d7 4a 98 3d af 02 12 bb
       -0.0023039943 0.0599299 0.074361496 -0.0022279432
000360 a2 d7 5f bd d4 70 1a bd 93 3b 90 3d fd c7 42 3c
       -0.054649003 -0.037705258 0.07042613 0.011888501
000370 73 ad 34 3d 21 8b 92 3c 38 96 36 bd f2 8a 06 bd
       0.044110727 0.017888607 -0.044576854 -0.032847352
000380 86 11 23 bc 1f da 87 3d 1b 48 b4 bd 7e 69 e9 bc
       -0.009952908 0.066334 -0.088028155 -0.028492685
000390 a2 5f 1b 3d 09 ca 32 3d 01 f6 a1 3c a1 91 3a bd
       0.037933 0.043649707 0.019770624 -0.04554904
0003a0 b5 61 cf 3c db 75 84 3d b0 0f 03 3c e7 db b5 3d
       0.025315145 0.06467792 0.007999346 0.08879834
0003b0 09 84 91 bd ca 4d 86 bd e5 ba 50 bd f9 5d 87 bd
       -0.07105262 -0.06557806 -0.050959487 -0.06609721
0003c0 2e ec 40 bd 94 bc 9a 3d ea f4 57 3d fe ab a1 bd
       -0.04710024 0.075555 0.052723803 -0.07894133
0003d0 7c d1 62 bd a5 17 8b bd a7 3e 7f 3d 94 7c 8f bd
       -0.05537556 -0.06791619 0.06231561 -0.07006183
0003e0 29 bb 9e 3c 23 85 8c bd 89 7c 29 3d cc 21 0f bd
       0.019376354 -0.06861331 0.04137853 -0.03494434
0003f0 62 93 80 3b 19 ea aa bd 83 44 3d 3b 96 72 22 bd
       0.0039238194 -0.08345432 0.0028879947 -0.03966006

fc2.bias f4 [128]
000000 32 92 b0 3b 5b 42 0f 3d 11 e7 b3 bd 89 9a 82 bd
       0.0053885216 0.03497539 -0.08784307 -0.063771315
000010 02 6b 96 3d cd 36 93 3d ea cc 08 bd 65 16 9e bd
       0.07344629 0.07188187 -0.033398546 -0.07719115
000020 07 28 05 3d e7 5f a0 3d 1c a5 a1 bd dd 29 f9 bc
       0.032508876 0.07830792 -0.0789282 -0.03041547
000030 a1 5a 73 3d ea dc d3 3b 39 95 08 ba 5c 0c a5 bd
       0.059412602 0.006465544 -0.0005210224 -0.08058998
000040 a0 bc 62 3c 36 ee a0 bd d7 48 38 bd bf 12 3e bc
       0.013838917 -0.07857935 -0.04499134 -0.011601149
000050 71 d3 4f bd bd 67 cc bc a5 88 12 3d 71 ca 0d 3d
       -0.050738756 -0.02495181 0.035774846 0.03461689
000060 f8 11 37 bd 51 22 95 3c 00 b3 03 bd 76 3f a3 bd
       -0.04469487 0.01820484 -0.03215313 -0.079710886
000070 e4 bf de bc cd 9a aa 3d 38 f5 01 bd 6e a0 80 3d
       -0.02719111 0.08330307 -0.031728 0.062805995
000080 ae b0 98 bd d6 d1 9d 3d c9 8e fc 3c f8 90 87 3d
       -0.07455574 0.07706039 0.030829804 0.066194475
000090 52 6b c4 3a 1b a4 c4 bb 20 c7 6c bd e8 4c 2f 3d
       0.0014985597 -0.006001008 -0.057807088 0.042797953
0000a0 b5 7e 3f bd 19 82 4f 3d ba 71 10 bd dd 09 94 3d
       -0.046751697 0.05066118 -0.035264708 0.07228444
0000b0 48 5d 85 3d 0d 33 48 bd 33 10 a0 bd ab ba cb 3c
       0.065119326 -0.04887681 -0.0781559 0.024869284
0000c0 1a f0 23 3d dc d0 b3 bb fc fa 36 3d 6a 52 46 bd
       0.0400239 -0.0054875445 0.04467295 -0.04841844
0000d0 fa e7 73 bb a7 c8 2a 3d dd 94 b4 bb 11 80 7f bd
       -0.0037217126 0.041695263 -0.00551091 -0.062377993
0000e0 3e e5 4b 3b f9 7e 33 3d 46 85 49 bd 2b bb 01 bd
       0.003111198 0.043822262 -0.049199365 -0.031672638
0000f0 0d 82 39 3c 9a 88 56 3d 72 62 94 3d cc 29 a8 3d
       0.01132251 0.052376367 0.072453395 0.08211097
000100 14 08 84 3b 5f aa 46 3d 49 45 9b bd 6c 0b cb bc
       0.0040292833 0.048502322 -0.075815745 -0.02478572
000110 6a 14 a5 bd 8e 46 59 bc 2b 65 9b 3c ab 48 64 3d
       -0.08060534 -0.01326145 0.01896914 0.055733364
000120 ed 88 e0 bc 12 c4 98 3b 61 77 78 3d 8d 8c 27 bd
       -0.027409041 0.0046620453 0.060660724 -0.040905524
000130 87 60 80 3d 5c 24 64 3d 00 6c 9e 3d 2b be 09 3d
       0.06268411 0.055698738 0.07735443 0.033628624
000140 4d 83 ce bc 1c 9c ce 3b e6 2a b5 3b 0a 7b 63 bc
       -0.025209093 0.006305231 0.0055287955 -0.013884315
000150 e0 eb db bb b0 d5 a8 3d 1f 7f 98 bd 23 9d 0e 3b
       -0.006711468 0.08243883 -0.074461214 0.0021761141
000160 fb 1c 4d bd 43 a8 95 3d 75 09 2d bd ea 3d ad bd
       -0.050076466 0.07307484 -0.042245347 -0.08459075
000170 a4 14 36 3d d9 eb d4 bc 46 a4 84 bd c7 4a 0d bd
       0.04445328 -0.025991367 -0.06476645 -0.03449514
000180 0b 11 65 3d fd 55 88 3d b7 ca 9c 3d 17 aa a5 bd
       0.055924457 0.06657026 0.07655852 -0.08089083
000190 e8 00 1c bc e9 fd 10 3c 6c b2 4e bb 90 ab e0 3c
       -0.0095217 0.008849599 -0.0031539453 0.027425557
0001a0 ac 98 09 bd 76 3d 9f 3d 14 62 19 3d c7 4c 89 3b
       -0.033592865 0.077753946 0.03744705 0.004190061
0001b0 e9 29 79 3c 50 c1 55 3d 06 17 76 bd 01 d2 1d 3c
       0.015207746 0.05218631 -0.06008055 0.009632588
0001c0 fd 3a 9c bd cc e3 31 3b ec 71 89 3d 63 63 42 bd
       -0.076284386 0.0027143834 0.06711182 -0.047458064
0001d0 71 e8 c1 bc 03 6d 11 3d a0 13 5e bd aa eb 2a bd
       -0.023670407 0.035504352 -0.054217935 -0.041728653
0001e0 e3 05 a3 bd c9 36 97 3d 9f 1e 2b 3d 4e 03 75 bd
       -0.07960107 0.07383496 0.04177725 -0.059817605
0001f0 fd 27 72 3c c1 1b 89 3c ef 07 4d 3d 13 92 7e 3d
       0.014780042 0.016736867 0.050056394 0.062151026

action_head.weight f4 [5, 128]
000000 07 9b ae bd 1c b8 0d ba 9b 66 14 3d 24 06 85 3d
       -0.08525663 -0.00054061576 0.036230665 0.06495312
000010 73 b0 fa 3c ab d8 8e bc c3 4d 49 bd 1c da 80 bd
       0.030601716 -0.0174373 -0.049146425 -0.06291601
000020 29 24 81 3d 4f 0c 94 39 00 a5 5e ba a3 e0 c8 3c
       0.06305725 0.0002823793 -0.0008493215 0.024521178
000030 65 2b 74 3d 11 c2 44 bd 60 5d 27 3d 37 e3 71 bd
       0.059611697 -0.04803664 0.040860534 -0.05905458
000040 2b 18 58 bd 33 f0 a9 bd dd 11 8d 3c 63 29 4f bd
       -0.052757423 -0.082977675 0.017220432 -0.05057658
000050 ce bf 9d bd 5f d3 42 3d 24 a0 3f bd ab 19 81 bd
       -0.077025995 0.04756486 -0.04678358 -0.06303724
000060 cc e5 87 3d 8c c0 c1 bc 66 69 7f 3d 2e 4a 65 bd
       0.06635627 -0.023651384 0.062356375 -0.055978946
000070 95 50 dd 3c 9e 34 6c bd f2 d9 80 bd b9 56 c0 bc
       0.027015964 -0.057667367 -0.0629157 -0.023478853
000080 65 ac e2 bb 9a ce a8 bd b9 c1 7e bd cc c6 9c bd
       -0.0069175237 -0.08242531 -0.062196467 -0.07655105
000090 f2 d8 ab 3b 53 62 99 3d f7 a0 5d 3d d0 29 48 3c
       0.0052443678 0.07489457 0.054108586 0.012217
0000a0 ae e8 2c bd 03 ce 55 bd b5 3a 8d bd 42 97 a4 bd
       -0.04221409 -0.05219842 -0.06895963 -0.08036663
0000b0 7e 23 92 bc 1a 1a 32 bc 75 10 5e bc b6 f7 e4 3c
       -0.01783919 -0.010870481 -0.013553728 0.027950149
0000c0 de a8 7d 3c 33 05 98 bd 1e 0f 97 bd bf 0f 59 3c
       0.015482156 -0.07422867 -0.0737593 0.013248383
0000d0 6f 02 05 3c c7 af fc bc 04 ce 19 3d b3 b7 8a bd
       0.008118256 -0.030845536 0.037549987 -0.06773319
0000e0 f8 3c 84 3c fe b2 8a bc ec f5 a2 bd ce fb 3a 3d
       0.016142353 -0.016931053 -0.07957062 0.045650296
0000f0 9f 96 15 3d 39 4e 9b bd 42 19 4e bd ad 0f f0 3b
       0.036520597 -0.07583279 -0.050317056 0.0073260874
000100 b7 86 0f bd b4 81 24 bd 5e 16 19 3c 9f 2d 96 bd
       -0.035040583 -0.040162757 0.009343712 -0.0733292
000110 57 57 9f bd 48 17 72 bd 6d 67 85 3d 0e 92 3f bd
       -0.07780331 -0.059104234 0.065138675 -0.046770148
000120 97 5c 29 3c cd 60 61 3d ca c3 82 3c f0 e0 97 bd
       0.010337017 0.055023957 0.0159625 -0.0741595
000130 41 64 09 3d 47 65 2b 3d b8 32 ca bc 55 53 54 3d
       0.033542875 0.041844632 -0.024682388 0.051837284
000140 9c c0 29 bd 7b 46 8f bb a0 85 aa bd 49 c1 2e 3d
       -0.041443452 -0.0043724156 -0.08326268 0.0426648
000150 0a d4 66 bd 4a e3 63 bc c8 8c a3 bd 4d 82 79 3d
       -0.05635456 -0.01390917 -0.07985836 0.06091528
000160 d7 2a 5a 3c 45 42 0c bd 5d 11 a7 bb 9e 35 94 bd
       0.013315878 -0.034242887 -0.0050985054 -0.07236789
000170 a4 6f 7d 3d 95 06 35 3c 5a 1b 66 3d 05 84 fd 3b
       0.061874047 0.011048933 0.05617843 0.007736685
000180 07 84 92 bd 88 db 56 bb 8d 51 05 3b ce 38 3f 3d
       -0.071540885 -0.003278466 0.0020342798 0.046685033
000190 a0 3e 7d bd c3 ab 3e bd bf d0 e7 bb c6 72 9f bd
       -0.061827302 -0.046550523 -0.007074445 -0.07785563
0001a0 1f 53 8e bb 14 00 4d 3d 33 4b 89 bc 32 de 72 bd
       -0.004343405 0.050048903 -0.01675949 -0.059293933
0001b0 ae 30 19 bd 29 fc 86 bd e1 50 a6 3d 74 0a 13 bd
       -0.03739994 -0.065910645 0.08120895 -0.03589864
0001c0 77 f0 98 bd 36 e3 01 bc 16 70 41 bc e2 cd 34 bd
       -0.0746774 -0.007927706 -0.0118065085 -0.044141658
0001d0 e2 4f 6d 3d 5f e9 83 bd c2 04 85 bc 0a b4 38 bd
       0.05793751 -0.064409964 -0.01623762 -0.045093574
0001e0 30 24 0a 3d 92 ff 28 bd d4 ca be 3c 50 f3 9d bd
       0.033725917 -0.041259356 0.023290075 -0.07712424
0001f0 f0 b9 b7 3c 09 4a 27 3d 61 9f be 3c d1 23 9a 3d
       0.02242753 0.04084209 0.023269357 0.07526363
000200 56 39 2a bc 4f 95 14 3d 8e ce 9d 3d 4a d4 36 3d
       -0.0103896465 0.036275204 0.07705413 0.04463605
000210 fc 19 a5 bd 29 b8 a6 3c 5a 45 69 3d 40 49 71 bc
       -0.08061597 0.020351486 0.056950904 -0.014726937
000220 fc 3b 05 38 da 09 26 bd 19 81 ab bd 53 93 30 3d
       3.1765536e-05 -0.04053674 -0.08374233 0.04310925
000230 c3 db a2 3d d6 7f 94 bd 39 c9 62 bb ca 35 d6 bc
       0.079520725 -0.07250945 -0.0034604801 -0.026148695
000240 af f1 03 bd 07 7b a9 bc f8 b3 11 bd d3 b7 6b bd
       -0.03221291 -0.020688547 -0.035572022 -0.057548355
000250 91 af 37 3d 11 c3 16 bd 99 4b 05 bd 09 e2 13 bd
       0.044845168 -0.036807124 -0.0325428 -0.036104236
000260 99 3c 5a bd 74 01 a6 bd 3d 4d 9d 3d 7b 67 84 bd
       -0.053280447 -0.08105746 0.07680748 -0.0646505
000270 e1 c2 5e 3d 62 22 fb bc e2 23 29 3d 3b 9f a4 bd
       0.05438507 -0.030656043 0.041293986 -0.08038183
000280 2b 23 f0 bc 48 42 3f bd 27 7f 31 bd 5e 61 72 3c
       -0.029313644 -0.04669407 -0.043334153 0.014793722
000290 7e 69 80 bd c4 df 11 bd 24 4b 5d bd a2 9f 93 bd
       -0.06270121 -0.03561379 -0.054026738 -0.07208182
0002a0 4f eb 47 3b 64 d9 a0 bd 42 35 50 3d 17 c5 14 3d
       0.0030505245 -0.07853964 0.05083204 0.036320772
0002b0 03 7c 72 3d dd d8 95 3d bb e9 0d 3b c9 58 2c bc
       0.059200298 0.07316754 0.0021654207 -0.010519215
0002c0 74 f9 b6 bc 27 17 fc 3c c2 7e a5 3d 39 f0 98 3d
       -0.022335745 0.030772759 0.08080818 0.07467694
0002d0 94 93 85 bd 3b 7f c1 3c 8e 1c e1 bc 77 ef 6c bd
       -0.06522289 0.023620239 -0.027479436 -0.05784556
0002e0 3c e2 ef 3c f9 9c 05 3d cf 45 03 39 fc 1f f2 3c
       0.029282682 0.032620404 0.0001251914 0.029556267
0002f0 49 3e 9e bc 99 92 6d bc ad 31 84 bd 4b 3d 73 bd
       -0.01931681 -0.014500284 -0.064547874 -0.059384625
000300 fb 0e 6a 3d 14 7e f4 bc 90 74 93 bd 01 4f d6 bc
       0.057143193 -0.029845275 -0.07199967 -0.026160719
000310 1a cd 76 bd e3 73 2a 3d 9f 42 83 bd 16 7b 1a 3d
       -0.060254194 0.041614424 -0.06409191 0.03771504
000320 79 a8 99 bb 13 97 b5 bd 12 b1 92 3c bf 0d 4f 3d
       -0.004689273 -0.08866706 0.0179067 0.05055022
000330 59 16 84 bd 1e c0 81 bd 26 21 c5 3c 88 ad 86 bd
       -0.06449575 -0.063354716 0.024063658 -0.06576067
000340 f0 2d 05 3d 61 42 e5 bc 99 c1 d3 bb 3b ea 1f 3d
       0.032514513 -0.027985753 -0.0064622876 0.03904174
000350 c9 ba 92 3b c3 38 8e bc 4a 7f 5f 3d a9 ae aa bc
       0.004477833 -0.01736105 0.05456475 -0.020835238
000360 47 b3 54 bd 6b f5 96 bd 6e 96 54 3d 1b 0b 85 3c
       -0.051928785 -0.073710285 0.051901273 0.016240647
000370 13 62 70 bd 4d 43 9c 3d f1 b6 ba bd 04 a0 93 bc
       -0.05868728 0.07630024 -0.091169246 -0.018020637
000380 23 4e 9c 3d ac 29 b2 bd c5 c6 24 3d 0d 1b 96 bd
       0.07632091 -0.086993545 0.040228624 -0.07329378
000390 ec ba 0a 3c 35 50 43 bd 2b 32 3e bc d0 36 98 bd
       0.008467417 -0.047683913 -0.011608641 -0.0743233
0003a0 9f 66 b7 bd f0 1e 2d bd f8 51 1d 3d d7 b4 57 bd
       -0.0895512 -0.042265832 0.03840825 -0.052662697
0003b0 a4 a4 8f bd 61 94 61 bd 1b bb 87 bd f0 2d 1c 3a
       -0.070138246 -0.055073146 -0.066274844 0.0005957773
0003c0 77 14 9e bb 28 7b 37 3c db 3a 73 bd c9 a5 84 bb
       -0.004824217 0.011198796 -0.0593823 -0.0040480834
0003d0 60 90 45 bd 4f e5 1a bd 3a 0b a2 3d cd ca 7d 3c
       -0.04823339 -0.037816342 0.079122975 0.015490246
0003e0 20 17 a5 bc 77 58 32 bc 1e 01 93 bd af 17 4b bd
       -0.020152628 -0.0108853495 -0.071779475 -0.049583133
0003f0 48 2e 71 3c 36 5e 55 3d c7 3e 8a 3d 3a 85 9c 3c
       0.014720507 0.0520918 0.06750255 0.019106496

action_head.bias f4 [5]
000000 32 2d a6 bd 4f cd 93 3d 87 ab 3b bd 5f c0 0a 3d
       -0.08114089 0.07216894 -0.045817878 0.033874866
000010 c6 1f bb bd
       -0.0913692

value_head.weight f4 [1, 128]
000000 0b e2 38 3c f6 e3 2f bb b7 f3 c0 3c 61 e7 51 bd
       0.011284362 -0.0026838756 0.023553712 -0.05124605
000010 6f 6e e7 bc 54 7a 5c 3d f3 16 ad bd aa 38 98 3d
       -0.028250901 0.0538276 -0.08451643 0.07432683
000020 a5 60 62 3c ee 82 a7 3d 91 cf 14 3d e2 1d cd bc
       0.013816987 0.0817927 0.036330763 -0.025038663
000030 5e 87 14 bd e9 3a 94 bb ae 82 cd 3c 92 b0 76 bd
       -0.03626191 -0.004523624 0.025086727 -0.060226984
000040 b9 e4 52 bd 6c 84 e5 bc 06 27 63 bd 91 10 77 bc
       -0.05148766 -0.028017245 -0.055457138 -0.015079633
000050 c2 62 6f bd c1 f9 53 bb e4 04 32 bd 9f 51 ad 3d
       -0.058443792 -0.003234491 -0.043461695 0.084628336
000060 db af ab bd e5 09 1b 3d 5c 79 21 3c 5c ed a2 bd
       -0.08383151 0.037851233 0.0098555945 -0.07955429
000070 1c bf c2 3c 22 ed 1d bc 57 28 58 bd 7d e8 7f bc
       0.023772769 -0.009639056 -0.052772846 -0.015619394
000080 26 db ce 3c d2 a5 ed bc 88 c2 49 bb e9 45 af bc
       0.025250982 -0.029009733 -0.0030786116 -0.02139564
000090 25 5b 42 3d e4 ca cf bc 6e 73 7c bb 55 6f b2 3d
       0.047450203 -0.0253653 -0.003852095 0.08712641
0000a0 60 88 99 bc 05 65 f7 3c 91 71 0b bb 03 43 2c 3d
       -0.018741786 0.030199537 -0.0021277408 0.042056095
0000b0 10 cd 12 bd 26 65 11 3d 6b af 45 3b 14 cf 80 3d
       -0.035840094 0.035496853 0.0030164372 0.06289497
0000c0 6e b1 f2 bc 87 6a 2c bd ef d7 9d bd 64 7c 02 bc
       -0.02962562 -0.04209378 -0.07707202 -0.007964227
0000d0 a8 6b 88 3d 2b 74 ea bc a7 5d a0 3b 28 fd 50 3d
       0.06661159 -0.028619846 0.0048939767 0.05102268
0000e0 f0 fc f9 bc 85 fa 07 bd 33 07 98 3d f5 79 7d bd
       -0.030516118 -0.0331979 0.07423248 -0.061883885
0000f0 4b 33 90 bc 4e 44 38 3d a2 25 ab 3d 8c 7c 90 bd
       -0.017602583 0.044987015 0.08356787 -0.070550054
000100 8e bf 00 3d 94 ff e8 3c 89 20 b0 ba 02 a4 80 bd
       0.03143268 0.028442182 -0.0013437431 -0.06281282
000110 1b 3a 8b bd df 31 90 3c 28 ea 49 3d 57 42 a2 3d
       -0.06798192 0.017601905 0.049295574 0.079228096
000120 3f f5 87 3d c2 81 ae bb a0 ea 74 bd ed a6 b0 3d
       0.06638574 -0.005325527 -0.05979407 0.086255886
000130 03 6c 4a 3d b9 be 11 bb 05 66 a0 3d 5d 22 5a bd
       0.049419414 -0.0022238924 0.07831959 -0.053255428
000140 4f 6c a0 3d e0 08 14 3d ab f3 c5 bb a9 0c 39 bd
       0.07833158 0.036141276 -0.0060410104 -0.04517809
000150 30 62 3f bc 0b 2d 4c bc e6 90 ee bb 67 24 9c bc
       -0.011681125 -0.012461911 -0.007280457 -0.019060327
000160 0c 57 60 bc 8a c2 91 3c 28 3a 81 bc 36 d2 87 bc
       -0.013692629 0.017792959 -0.015774801 -0.016579729
000170 bc 3a 49 bd 6a 33 e8 bb c2 32 ab bd 4f 2c b9 bc
       -0.04912828 -0.007086207 -0.08359291 -0.022604136
000180 34 f7 57 3d 2d b2 a7 bd 11 51 4f bd 73 cd 0d 3c
       0.052725986 -0.08188281 -0.05061442 0.00865494
000190 5c e0 8b 3b 28 ca a3 3d 35 ea b0 bd c3 20 fb 3b
       0.004268689 0.079975426 -0.086384214 0.0076638176
0001a0 40 44 88 bd 09 bb 43 bb a3 df 34 bd bc 15 76 bd
       -0.06653643 -0.002986612 -0.04415859 -0.06007932
0001b0 bd 7d 99 bb 01 3f 83 3d 8b d4 94 bc 59 4b e4 bc
       -0.0046841786 0.064085014 -0.018167755 -0.02786796
0001c0 fb e7 63 3d 9c 9e 62 3d 62 d6 7b 3d 6f 2f 21 3d
       0.055641156 0.055327043 0.06148375 0.039351877
0001d0 98 be e1 3c 35 54 eb 3c 9b 34 fc bb 4b 41 9f 3d
       0.027556702 0.028726676 -0.0076967007 0.077761255
0001e0 3c 20 8c bc f0 4d 8d bd cb ce 5c 3d ca 9b fe bc
       -0.017105214 -0.06899631 0.05390815 -0.031080145
0001f0 cc d1 21 bd 5e f0 40 3b 28 9e 0a bc e6 7f 09 3d
       -0.03950672 0.0029440145 -0.008460559 0.03356924
