rl/src/models/base_ppo/player_0_ppo_policy.pt (torch, 147125 bytes, 7 tensors)

fc1.weight f4 [128, 144]
0.052913364 -0.0701368 -0.015030828 0.058080904 0.06923243 -0.06461904 -0.024534414 -0.041865174
-0.020518826 -0.00037647435 0.07494399 -0.00920643 0.08231561 -0.07324758 -0.08105567 -0.06934277
0.075238265 -0.07688769 -0.0004082658 -0.0070757675 -0.052435387 -0.025151482 0.076199524 0.023022959
-0.05361489 -0.06084521 -0.010007292 0.04020071 -0.07622685 0.04835128 0.025605666 -0.017861994
0.05536533 0.0037296438 -0.04852892 -0.03110478 -0.030812718 0.04252895 0.05444525 0.039421886
0.039866813 0.051267352 -0.010168264 -0.053517304 -0.07977753 0.07068834 0.031508587 0.010163404
-0.055872254 -0.044572365 0.07328236 0.07212099 -0.0042225607 -0.02784523 0.031345595 0.049588267
-0.06747625 0.023893537 -0.04369142 0.033395223 0.019908644 -0.03237824 -0.034430195 0.019943193
-0.04480208 -0.010960512 -0.07002316 0.054325067 -0.0062625455 -0.038863555 -0.016258428 -0.02680134
-0.006009742 0.029453726 0.065360695 -0.058249075 0.0135833835 0.073943496 0.068964384 -0.074224554
0.0070507554 0.02387163 -0.034889888 -0.0317039 0.009680113 0.05559483 -0.049643874 -0.062025823
-0.05436865 0.0063016503 -0.024465036 0.07624738 0.0243005 -0.029303465 0.024216317 0.056975853
0.017952837 -0.08311799 -0.08665778 0.022063717 -0.05505397 -0.083375715 0.021480488 -0.084695525
0.04136054 -0.029804857 -0.025051242 -0.010861312 -0.064781636 -0.056694765 0.08009088 -0.031342674
-0.0020441404 -0.031225082 0.0014272087 0.007624849 0.039036974 -0.08195169 0.047344986 -0.026741805
0.017780364 0.004309303 -0.06148648 0.06092469 0.08303702 0.06267357 0.023053788 0.024374988
-0.08030571 -0.07389001 -0.05361924 -0.022130173 0.07442008 0.05260812 -0.07587125 -0.051268246
0.047469243 -0.0011177665 0.061618973 -0.07648101 0.071659505 0.052921742 0.0016986631 0.026053717
0.06517422 0.024697933 0.035362016 0.035284765 -0.0030959905 0.012677541 0.009934443 0.08040603
0.05341605 -0.08124676 0.0684463 0.0627854 0.041485336 -0.00954195 -0.07868761 -0.082643025
0.0056475187 -0.043073572 -0.050306834 0.045295954 0.06956405 0.021482574 0.002521784 -0.0050139846
-0.05573449 0.049491137 -0.020859286 -0.060074776 0.026522545 0.032072533 0.02295573 -0.007090676
0.020883234 0.044769734 -0.040850483 0.053449303 -0.0014938908 0.07320455 -0.028524416 -0.025270903
-0.07610744 0.0065218634 0.011368451 -0.03654789 -0.05126422 -0.010388785 0.03135623 0.049322847
-0.06447205 0.009354233 -0.043489985 -0.025887046 -0.06227779 0.044484027 -0.039538894 0.057167172
-0.073389724 0.04208261 0.03035006 0.0667036 0.05374317 -0.043104123 0.050950088 0.058528878
0.015131673 -0.022880806 0.04103494 -0.054419145 -0.06371181 -0.07921118 -0.07874114 -0.05240898
0.021075185 0.073835514 0.03829308 -0.077026784 -0.04142886 0.067720145 0.07766697 0.004446663
0.043561086 -0.051509317 -0.061069384 -0.013920895 -0.044982105 -0.03367065 -0.0197108 0.017524688
0.06711267 0.070491344 -0.034806557 0.025284335 -0.006970529 0.07366646 0.04441476 0.047363147
-0.009534754 -0.06515317 0.069800965 0.070801295 0.080055684 0.0043114396 0.018346773 0.0454311
0.040732007 -0.049947545 -0.028325383 -0.025987914 -0.040123068 -0.021305475 0.02564427 0.07157697
00000000: afbb 583d e2a3 8fbd dd43 76bc 3ee6 6d3d
00000010: bbc9 8d3d fd56 84bd 65fc c8bc d17a 2bbd
00000020: 1917 a8bc 8861 c5b9 3c7c 993d 91d6 16bc
00000030: 1695 a83d d402 96bd 8400 a6bd 9503 8ebd
00000040: 8516 9a3d 4b77 9dbd 820c d6b9 d7db e7bb
00000050: 7dc6 56bd 7b0a cebc 7f0e 9c3d a59a bc3c
00000060: 499b 5bbd d438 79bd a0f5 23bc 80a9 243d
00000070: d31c 9cbd fe0b 463d f9c2 d13c 5153 92bc
00000080: c2c6 623d 0a6d 743b 43c6 46bd 74cf febc
00000090: f46a fcbc d632 2e3d fc01 5f3d d878 213d
000000a0: 624b 233d b7fd 513d ca98 26bc f634 5bbd
000000b0: 6762 a3bd 0cc5 903d 260f 013d 6884 263c
000000c0: 4eda 64bd 8391 36bd 1015 963d 2bb4 933d
000000d0: 685d 8abb ae1b e4bc 3d64 003d 111d 4b3d
000000e0: fd30 8abd 61bc c33c c6f5 32bd 6ec9 083d
000000f0: 7417 a33c 0c9f 04bd ad06 0dbd e85f a33c
00000100: 6382 37bd b893 33bc 4d68 8fbd f683 5e3d
00000110: 0a36 cdbb 642f 1fbd 6530 85bc 7c8e dbbc
00000120: 5fed c4bb f148 f13c d4db 853d 9596 6ebd
00000130: d78c 5e3c b06f 973d 333d 8d3d 0b03 98bd
00000140: 060a e73b 708e c33c b3e8 0ebd f3db 01bd
00000150: 5699 1e3c 68b7 633d 6057 4bbd ca0e 7ebd
00000160: a9b1 5ebd 137e ce3b e66a c8bc 9627 9c3d
00000170: d811 c73c d20d f0bc 4c61 c63c 835f 693d
00000180: d411 933c c439 aabd a279 b1bd f8be b43c
00000190: 4680 61bd e3c0 aabd d9f7 af3c d974 adbd
000001a0: ab69 293d 5129 f4bc 4338 cdbc a5f3 31bc
000001b0: 3cac 84bd c538 68bd b006 a43d 2d61 00bd
000001c0: fcf6 05bb becb ffbc 2d11 bb3a dfd9 f93b
000001d0: 3ce5 1f3d 4ad6 a7bd d1ec 413d a111 dbbc
000001e0: 20a8 913c 0e35 8d3b 3fd9 7bbd 2b8c 793d
000001f0: 500f aa3d 005b 803d 4cdb bc3c 0eae c73c
00000200: 5277 a4bd a553 97bd d99f 5bbd 564a b5bc
00000210: 8e69 983d 9d7b 573d 6362 9bbd a7fe 51bd
00000220: 1c6f 423d 0582 92ba 2d64 7c3d 13a2 9cbd
00000230: 38c2 923d 78c4 583d ada5 de3a 9b6e d53c
00000240: 107a 853d 5253 ca3c c3d7 103d c286 103d
00000250: 1ae6 4abb 76b5 4f3c 13c4 223c ebab a43d
00000260: caca 5a3d b464 a6bd 932d 8c3d a295 803d
00000270: 87ec 293d d755 1cbc f826 a1bd bf40 a9bd
00000280: d20e b93b ea6d 30bd 8a0e 4ebd 4088 393d
00000290: 9977 8e3d 39fc af3c 8444 253b 5a4c a4bb
000002a0: d949 64bd 38b7 4a3d 18e1 aabc f810 76bd
000002b0: cf45 d93c 7d5e 033d a80d bc3c e758 e8bb
000002c0: 5113 ab3c 7860 373d d652 27bd a8ed 5a3d
000002d0: a8ce c3ba 44ec 953d 09ac e9bc ed04 cfbc
000002e0: 38de 9bbd 5bb5 d53b bd42 3a3c 3eb3 15bd
000002f0: 6efa 51bd b935 2abc 646f 003d c106 4a3d
00000300: ec09 84bd 7f42 193c 8e22 32bd 1211 d4bc
00000310: ff16 7fbd e234 363d 89f3 21bd 2028 6a3d
00000320: 5a4d 96bd d15e 2c3d b0a0 f83c e69b 883d
00000330: cc21 5c3d f38d 30bd 0ab1 503d fabb 6f3d
00000340: d6ea 773c 8770 bbbc 4114 283d 9ce6 5ebd
00000350: 567b 82bd 7939 a2bd 0943 a1bd ccaa 56bd
00000360: dea5 ac3c 1337 973d 34d9 1c3d 38c0 9dbd
00000370: 4fb1 29bd dcb0 8a3d dc0f 9f3d 50b5 913b
00000380: 1c6d 323d 6ffb 52bd e423 7abd 7714 64bc
00000390: 283f 38bd 3cea 09bd 8b78 a1bc ef8f 8f3c
000003a0: 5e72 893d c45d 903d 5291 0ebd 1821 cf3c
000003b0: 0969 e4bb 71de 963d 40ec 353d dcff 413d
000003c0: a837 1cbc 066f 85bd cff3 8e3d 4500 913d
000003d0: 3cf4 a33d fa46 8d3b f94b 963c f615 3a3d
000003e0: 9bd6 263d cc95 4cbd a20a e8bc 9be4 d4bc
000003f0: 1658 24bd d288 aebc ef13 d23c f296 923d

fc1.bias f4 [128]
0.05978259 -0.06844276 -0.06807566 -0.045380108 0.07050592 0.03768765 -0.029909171 -0.08455649
0.04103228 0.074296474 -0.079295605 -0.014713238 -0.013245203 0.064813994 -0.033171568 0.06878963
-0.010938534 0.053222653 0.011667384 -0.049059466 -0.0050873575 -0.06509987 -0.020168036 -0.029582974
0.027531628 -0.06262786 -0.0699335 0.01764531 0.042482477 0.041119836 0.07580516 -0.007660112
-0.052841946 -0.036119644 0.07314917 -0.07456805 -0.033659846 0.024783531 0.0523188 0.018426063
-0.056332212 0.022623332 -0.03859078 0.07719785 0.077654116 0.013616681 0.0051830877 -0.056932066
0.08012309 -0.017646583 -0.029980848 -0.061276305 0.061116867 -0.004628133 0.048579518 -0.077310376
0.032695763 0.027358565 -0.07895829 -0.06403867 -0.035589356 0.07638601 0.05495573 0.0704599
-0.029837761 -0.05395923 0.024158044 0.07103501 -0.03855242 0.04257989 0.068664275 -0.023377314
0.023728512 -0.049368512 -0.04501352 -0.083974 0.071047984 0.049508125 0.07866332 0.018825822
0.062306624 -0.060078572 -0.00083724415 0.0035067545 -0.012460351 -0.049761586 -0.020696638 -0.07085449
0.041932777 0.022994082 0.020791264 0.080882676 -0.06823366 0.054002635 0.00494211 0.019472124
0.0030364234 -0.06815863 -0.05906604 0.019917125 0.010092313 0.052174862 -0.07107558 -0.022117445
-0.021328589 0.04705502 0.028106436 -0.023980513 0.077517964 -0.073367305 0.017361343 -0.05887454
-0.013848204 0.0823377 -0.08151305 -0.004532827 0.06225455 -0.033118103 -0.056645066 -0.01817537
0.024467833 0.035684142 -0.07200606 0.05802524 0.04015044 0.060752638 -0.023720657 0.027434787
00000000: 97de 743d b82b 8cbd 406b 8bbd 7ee0 39bd
00000010: 6865 903d 5e5e 1a3d 1404 f5bc f42b adbd
00000020: 7711 283d c028 983d bc65 a2bd cb0f 71bc
00000030: 6802 59bc 33bd 843d e9de 07bd 94e1 8c3d
00000040: 8937 33bc ffff 593d 8e28 3f3c 94f2 48bd
00000050: d9b3 a6bb 1553 85bd 7037 a5bc fe57 f2bc
00000060: 028a e13c 0943 80bd 4b39 8fbd e68c 903c
00000070: 1b02 2e3d 466d 283d bc3f 9b3d ad01 fbbb
00000080: cc70 58bd 31f2 13bd 3bcf 953d 22b7 98bd
00000090: e8de 09bd d506 cb3c 3d4c 563d 41f2 963c
000000a0: 9bbc 66bd 9154 b93c 5e11 1ebd e819 9e3d
000000b0: 1f09 9f3d 8018 5f3c e4d6 a93b 9931 69bd
000000c0: 9317 a43d 918f 90bc 659a f5bc ddfc 7abd
000000d0: ae55 7a3d 98a7 97bb 51fb 463d e754 9ebd
000000e0: feeb 053d 121f e03c e2b4 a1bd b526 83bd
000000f0: 25c6 11bd 4570 9c3d 4219 613d 484d 903d
00000100: 526e f4bc 5b04 5dbd 17e7 c53c ce7a 913d
00000110: 24e9 1dbd 4068 2e3d db9f 8c3d c881 bfbc
00000120: 4c62 c23c a336 4abd 1960 38bd 8ffa abbd
00000130: 9b81 913d 08c9 4a3d 3c1a a13d 9c38 9a3c
00000140: 3b35 7f3d f314 76bd 817a 5bba 94d1 653b
00000150: 8026 4cbc ced2 4bbd ff8b a9bc 291c 91bd
00000160: b4c1 2b3d 165e bc3c 7152 aa3c d1a5 a53d
00000170: 17be 8bbd de31 5d3d 6cf1 a13b 0184 9f3c
00000180: bbfe 463b c096 8bbd 3bef 71bd 3d29 a33c
00000190: 3b5a 253c 4fb5 553d 1390 91bd a52f b5bc
000001a0: 4bb9 aebc c4bc 403d 783f e63c c872 c4bc
000001b0: bdc1 9e3d 9941 96bd 6039 8e3c 6e26 71bd
000001c0: 94e3 62bc aba0 a83d 50f0 a6bd 1c88 94bb
000001d0: a1fe 7e3d d9a6 07bd a804 68bd 83e4 94bc
000001e0: c470 c83c 8929 123d ea77 93bd e0ab 6d3d
000001f0: ca74 243d c2d7 783d d351 c2bc ebbe e03c

fc2.weight f4 [128, 128]
-0.07427722 -0.01676068 0.06047499 0.03567619 0.029674532 0.07825739 0.022770107 0.00089902873
-0.059141744 0.033417694 0.050725088 0.060553525 -0.08910462 -0.063685514 -0.067783095 0.029480236
-0.07375029 -0.051093876 -0.03567897 0.05851061 0.068973705 -0.025178727 0.042103052 0.006085186
0.013560212 0.014096682 0.06788571 0.062499367 -0.06029469 0.023664596 0.08381338 -0.012839996
0.010511929 -0.079282664 0.073029794 0.067693114 -0.020081716 0.015736073 -0.023052886 0.054797914
-0.08642299 -0.06921239 0.020746227 -0.07843253 0.074868225 0.06843645 0.024932716 -0.037279885
0.003735105 0.077521354 0.04678433 -0.0093101505 -0.060313 -0.08260076 0.009341518 -0.049368087
0.050664 -0.013876768 0.020786447 -0.07475918 -0.027043952 -0.08012056 0.0069372533 0.012834305
0.05137586 0.05015844 0.06374234 0.057147875 0.05397723 0.061442148 0.024570758 0.024428386
0.007823828 0.009267118 0.016483314 0.071376525 -0.058774274 0.07040011 -0.08206199 -0.059024062
0.01199568 -0.027477063 -0.07578126 -0.031422347 -0.016090734 -0.088101275 0.067156285 0.039910126
0.028390152 -0.0009924325 0.058802404 0.0790829 0.06875831 0.0878607 -0.044676464 0.05840965
0.026056094 -0.016653076 -0.0744723 0.057071242 0.06463686 -0.057544522 0.050787415 0.026999697
0.027039472 0.08184509 -0.0043602767 -0.018818937 0.03553792 -0.013623236 -0.04655685 0.005452117
-0.05354397 0.060332816 0.03985096 0.0030635714 -0.045112304 -0.08719314 -0.06750026 0.01710658
-0.053914208 0.012857105 0.0075232 0.051520415 -0.017263323 -0.060086302 0.03440801 0.044871178
0.0070322347 -0.08556282 -0.027470516 -0.08811592 0.046857946 -0.02702214 -0.025516538 -0.080617525
-0.012849501 -0.042640496 0.013195055 0.010777012 0.042621754 -0.034037385 -0.058421772 -0.020211976
0.08624044 -0.03343127 -0.04079875 -0.018500004 -0.047907982 0.03220097 -0.027530303 -0.042439196
0.0144002065 -0.08065757 -0.06585097 0.046044644 -0.03524161 0.029986635 -0.08495671 0.007292847
0.029023578 -0.07137959 -0.07937012 -0.008262445 0.059289392 0.05742764 -0.02034458 0.03771057
0.049322736 -0.013214399 -0.054354712 0.024791364 -0.08662274 0.049220257 0.0011510653 -0.053316172
-0.044459134 -0.051361993 0.06719964 0.025042886 -0.027863713 -0.008464699 -0.0013127222 0.06742363
0.050016657 -0.07307996 0.050734077 -0.05889979 0.006598149 0.073659204 0.005756831 -0.08659348
-0.048439015 0.016254079 -0.05416202 -0.0858122 0.0333828 0.02043133 0.05608648 -0.03861258
0.035355795 0.06823487 -0.060563628 -0.059473403 0.0018603508 0.017941453 0.08739589 0.07273137
-0.004089851 -0.0027207052 0.016616188 -0.006493443 -0.061172217 0.080597565 -0.03154856 0.0007076677
0.04720736 0.0032925634 0.05503702 -0.058477733 -0.027601112 -0.023501266 0.073265806 -0.017485969
0.08468584 0.026197786 0.07133456 -0.07015691 0.08134139 -0.012515465 -0.08014908 -0.01358011
0.057537526 -0.019306866 -0.03353234 0.07079444 -0.0050993953 0.05185358 0.042408578 0.054546367
0.060600612 0.05512335 -0.049463265 -0.044118825 -0.086101644 -0.014634925 -0.08464513 -0.020839492
0.009905288 -0.04301741 -0.015675688 -0.05927119 0.003627534 0.077073246 0.03257461 -0.008680211
00000000: a81e 98bd b24d 89bc a0b4 773d 3221 123d
00000010: 0118 f33c 6945 a03d 6088 ba3c ccac 6b3a
00000020: 9d3e 72bd fee0 083d 1cc5 4f3d f906 783d
00000030: 7c7c b6bd 8d6d 82bd ddd1 8abd 8980 f13c
00000040: 640a 97bd d047 51bd 1d24 12bd d2a8 6f3d
00000050: 1642 8d3d 9e43 cebc 4074 2c3d 3d66 c73b
00000060: a72b 5e3c c5f5 663c aa07 8b3d 56ff 7f3d
00000070: 91f7 76bd 41dc c13c 59a6 ab3d d95e 52bc
00000080: 3a3a 2c3c f35e a2bd a590 953d b0a2 8a3d
00000090: 6982 a4bc f0e8 803c 68d9 bcbc c773 603d
000000a0: 89fe b0bd 3abf 8dbd fef3 a93c 3ca1 a0bd
000000b0: 8354 993d 6928 8c3d b23f cc3c cbb2 18bd
000000c0: aac8 743b 84c3 9e3d eda0 3f3d 9a89 18bc
000000d0: c40a 77bd 962a a9bd 2b0d 193c 3136 4abd
000000e0: 0e85 4f3d 625b 63bc 5748 aa3c 571b 99bd
000000f0: 478b ddbc 4016 a4bd e651 e33b fa46 523c
00000100: 7e6f 523d f072 4d3d 588b 823d e413 6a3d
00000110: 3a17 5d3d c3aa 7b3d 9d48 c93c 0a1e c83c
00000120: 832f 003c 1cd5 173c 0408 873c db2d 923d
00000130: 4bbd 70bd ef2d 903d 1e10 a8bd 37c3 71bd
00000140: 8789 443c 9417 e1bc 3533 9bbd b8b4 00bd
00000150: b7d0 83bc 716e b4bd 3c89 893d cd78 233d
00000160: 7792 e83c 8214 82ba cada 703d 37f6 a13d
00000170: 28d1 8c3d 50f0 b33d abfe 36bd f53e 6f3d
00000180: 9773 d53c 086c 88bc ef84 98bd 89c3 693d
00000190: 5460 843d ceb3 6bbd 7706 503d 782e dd3c
000001a0: e281 dd3c 669e a73d a7e0 8ebb 2c2a 9abc
000001b0: 3690 113d fe33 5fbc 65b2 3ebd aca7 b23b
000001c0: ec50 5bbd 8b1f 773d c33a 233d 33c6 483b
000001d0: aec7 38bd 5192 b2bd 943d 8abd 1923 8c3c
000001e0: 25d5 5cbd 9ba6 523c 2d85 f63b 1207 533d
000001f0: d06b 8dbc 0e1d 76bd 6aef 0c3d d7ca 373d
00000200: a96e e63b 8f3b afbd d909 e1bc 1f76 b4bd
00000210: 1eee 3f3d 895d ddbc 0f08 d1bc cd1a a5bd
00000220: b786 52bc cda7 2ebd 1230 583c 1192 303c
00000230: 2694 2e3d c96a 0bbd ab4b 6fbd 9693 a5bc
00000240: d49e b03d 3aef 08bd 971c 27bd 528d 97bc
00000250: 293b 44bd 2ae5 033d 3b87 e1bc b9d4 2dbd
00000260: d8ee 6b3c cc2f a5bd e0dc 86bd 4f99 3c3d
00000270: 8259 10bd 88a6 f53c c9fd adbd d6f8 ee3b
00000280: dbc2 ed3c 762f 92bd cd8c a2bd 355f 07bc
00000290: 6fd9 723d 3f39 6b3d ada9 a6bc 6676 1a3d
000002a0: a306 4a3d 3581 58bc 0ca3 5ebd 4217 cb3c
000002b0: 4367 b1bd 2e9b 493d 58df 963a 0f62 5abd
000002c0: c81a 36bd f460 52bd f79f 893d bd26 cd3c
000002d0: 7142 e4bc 85af 0abc a60f acba 6615 8a3d
000002e0: 44de 4c3d f2aa 95bd 89ce 4f3d e840 71bd
000002f0: 4935 d83b a3da 963d cca3 bc3b ec57 b1bd
00000300: fd67 46bd 4627 853c ffd8 5dbd 4fbe afbd
00000310: 67bc 083d 9b5f a73c f0ba 653d 3a28 1ebd
00000320: 3dd1 103d b9be 8b3d 9111 78bd 629a 73bd
00000330: 04d7 f33a f4f9 923c 9efc b23d 2ff4 943d
00000340: 2804 86bb dc4d 32bb ac1e 883c f3c6 d4bb
00000350: b88f 7abd 5610 a53d 1039 01bd c782 393a
00000360: 815c 413d 0cc8 573b 806e 613d 5986 6fbd
00000370: ba1b e2bc ba85 c0bc 620c 963d bc3e 8fbc
00000380: c56f ad3d bd9c d63c db17 923d 6dae 8fbd
00000390: 5196 a63d aa0d 4dbc 3325 a4bd 1c7f 5ebc
000003a0: 78ac 6b3d 6f29 9ebc 3559 09bd adfc 903d
000003b0: d418 a7bb 6b64 543d 9eb4 2d3d 036c 5f3d
000003c0: 5938 783d 06c9 613d fe99 4abd f1b5 34bd
000003d0: 0f56 b0bd 53c7 6fbc 6d5a adbd 95b7 aabc
000003e0: ca49 223c 0633 30bd 4d6a 80bc 59c6 72bd
000003f0: ecbb 6d3b 94d8 9d3d f46c 053d 7237 0ebc

fc2.bias f4 [128]
-0.031160163 -0.012400336 -0.028981848 0.045477085 -0.032465667 0.041298475 0.08079097 -0.08475081
-0.011846699 -0.05424142 -0.014365923 -0.052152872 0.08830223 -0.039917983 0.023331644 -0.061418615
0.020550167 -0.021160929 -0.049298063 -0.0030129694 0.042916384 0.04283105 0.017708216 0.03445922
0.08492234 0.06523119 0.068088576 0.07401989 0.021938147 -0.012488964 0.07827979 0.050525717
-0.07025924 -0.08793091 -0.039319195 -0.029270094 0.08495806 0.07808083 -0.006658998 0.035423256
0.04472327 0.021348197 0.08677911 0.022103261 -0.018945284 -0.056550074 0.044729542 0.06393376
0.060376026 -0.05084368 -0.023952983 -0.054282993 -0.008590929 -0.015252174 -0.022278043 0.0023655195
0.028637988 0.004389163 0.05279495 0.057586666 0.0738092 -0.0190755 0.04071044 0.0330283
-0.006787381 -0.060377706 0.06580739 -0.073440716 0.03742244 0.021839676 -0.051233616 0.049703848
-0.07071642 0.030732606 -0.043241773 0.0084680235 -0.06671418 -0.016158698 0.030042091 -0.03996207
-0.03589736 -0.08306189 -0.022276213 0.012507433 -0.040542293 0.053412847 0.048541393 -0.051079933
-0.04916217 0.069351785 -0.002113437 -0.059658196 -0.0009682019 -0.029384775 -0.073510855 0.03205191
0.01868 -0.03192373 0.029944837 -0.014274378 -0.03794408 0.05379758 0.057138674 -0.058337547
0.036722727 0.01710136 -0.05558172 0.06438373 0.0064635854 0.052620742 0.02301836 0.04900563
-0.042661328 0.087872006 0.0013450821 0.054476615 0.03497966 -0.04925724 -0.0033644664 -0.06566153
0.013923332 0.06299284 -0.03191768 -0.019778453 -0.073655434 -0.07973184 0.08096926 0.07179764
00000000: 9943 ffbc c72a 4bbc 576b edbc 2e46 3a3d
00000010: b8fa 04bd 9728 293d bc75 a53d d591 adbd
00000020: a818 42bc 402c 5ebd 0c5f 6bbc 409e 55bd
00000030: cdd7 b43d 0a81 23bd 0122 bf3c 1692 7bbd
00000040: d358 a83c af59 adbc c4ec 49bd 3d75 45bb
00000050: 17c9 2f3d 9c6f 2f3d d210 913c 1c25 0d3d
00000060: c4eb ad3d ee97 853d 0672 8b3d bd97 973d
00000070: a1b7 b33c 839e 4cbc 2851 a03d 0ef4 4e3d
00000080: 14e4 8fbd 1f15 b4bd 2a0d 21bd d6c7 efbc
00000090: 7efe ad3d d8e8 9f3d b933 dabb fa17 113d
000000a0: bf2f 373d 6ae2 ae3c 3fb9 b13d e611 b53c
000000b0: 2433 9bbc 0da1 67bd 5336 373d b4ef 823d
000000c0: da4c 773d 7641 50bd 0c39 c4bc d857 5ebd
000000d0: f8c0 0cbc 41e4 79bc 7180 b6bc d506 1b3b
000000e0: 379a ea3c f8d2 8f3b 843f 583d ffdf 6b3d
000000f0: 4729 973d 3944 9cbc febf 263d af48 073d
00000100: ae68 debb 9d4e 77bd 06c6 863d 1668 96bd
00000110: 4648 193d 1fe9 b23c 57da 51bd 4396 4b3d
00000120: c5d3 90bd f2c2 fb3c 491e 31bd 77bd 0a3c
00000130: 72a1 88bd 3f5f 84bc d51a f63c 44af 23bd
00000140: 1c09 13bd 5a1c aabd 9b7c b6bc faeb 4c3c
00000150: ad0f 26bd 6ec7 5a3d 57d3 463d 3139 51bd
00000160: 465e 49bd 4f08 8e3d 9781 0abb 275c 74bd
00000170: eece 7dba 57b8 f0bc dc8c 96bd dd48 033d
00000180: cd06 993c 75c2 02bd e04e f53c 15df 69bc
00000190: 406b 1bbd da5a 5c3d 3e0a 6a3d 5af3 6ebd
000001a0: 926a 163d 2718 8c3c a8a9 63bd 9edb 833d
000001b0: 7ccc d33b d988 573d 0091 bc3c 21ba 483d
000001c0: a5bd 2ebd 3df6 b33d 774d b03a df22 5f3d
000001d0: d546 0f3d f6c1 49bd 617e 5cbb 8d79 86bd
000001e0: b01e 643c 6402 813d 1dbc 02bd 6c06 a2bc
000001f0: a9d8 96bd 724a a3bd 36d3 a53d a40a 933d

action_head.weight f4 [5, 128]
0.015760215 0.031742785 0.0804401 -0.06496417 0.01056459 -0.004872898 -0.054199662 0.06475284
-0.021574806 -0.07487653 0.00012413952 0.002725021 0.022068148 -0.065997966 0.061043542 0.026228955
-0.061449505 -0.03926035 0.02716876 -0.057857044 -0.082770035 0.012044357 0.055640627 0.0048027397
0.038535397 -0.07939518 0.05657718 -0.05010835 -0.027283777 -0.032130934 0.06382814 -0.085955344
0.011081536 0.051228445 -0.03534107 0.034236897 0.02942212 0.064339384 0.05323288 -0.05894866
0.0827907 -0.087438405 -0.08932344 -0.07099029 -0.077966526 -0.03643698 -0.05321077 -0.0114690615
-0.0745449 -0.0069759446 0.03788155 0.064095125 0.069129914 0.086497575 -0.033349533 -0.038198818
-0.0623781 0.08488257 -0.051215794 0.0039800084 -0.07971007 0.015306055 -0.035726428 0.029695507
-0.058485072 -0.011826764 -0.04561736 -0.06878496 -0.04527114 0.018406129 0.0053298413 -0.036962226
-0.06897378 0.045431226 0.07923795 -0.028420664 0.036441468 0.08606962 -0.026399983 0.047517247
-0.047186658 -0.0066208094 0.08405777 -0.07912224 -0.06620273 -0.01663167 -0.051788468 0.07301416
-0.046800587 0.061690222 0.08401666 -0.06489449 0.033399597 -0.0765382 0.0018511044 -0.074085996
0.06954316 -0.06711815 -0.04794964 0.093326144 -0.03893588 -0.03106245 -0.05267249 -0.08309511
-0.016136518 0.054585576 -0.009847384 -0.03461157 -0.024617469 0.067249 0.058128253 -0.05412161
-0.036476765 -0.07427742 -0.05240926 0.0502523 -0.0094446 -0.058810506 0.059444834 -0.072299615
-0.033145547 0.07425081 -0.031418674 -0.021087294 0.0919105 -0.030257829 0.0058197854 -0.05944695
0.063352205 0.020277001 0.03990927 -0.023190353 -0.055528585 0.07890369 -0.05651636 -0.0064305817
0.050850987 0.039813153 0.02062179 0.0010493381 -0.03227462 0.05679459 0.040007684 -0.035273883
0.067919105 0.028404739 0.0804189 -0.017584702 -0.0012834659 0.029791731 0.013152011 -0.08503694
-0.015747132 0.058615968 0.014772659 -0.062758535 0.019127922 -0.06214891 0.08200345 0.063864574
-0.06058639 -0.082538985 -0.026745042 0.03472911 -0.087905005 -0.0078428555 0.060302686 -0.032405995
0.03377409 0.060907748 0.07075254 0.07894047 0.08298328 -0.07633192 0.036312144 -0.083468035
0.022069985 -0.0666774 0.047607988 -0.015061644 -0.034882788 0.08702171 0.046246327 0.06504158
0.025638504 0.004757417 0.05866049 0.025736824 0.029238401 0.025212089 0.01236724 -0.059887964
-0.06203916 0.005336433 0.04102753 -0.067865506 0.0504908 0.04708135 -0.0821404 -0.041362103
-0.044484343 0.055689655 -0.09317704 -0.018107327 0.05707705 -0.04636617 -0.054970425 0.030206518
0.031177849 0.05364192 -0.06579833 0.016967312 0.022889894 -0.062363748 0.067980416 0.0128822075
0.055493742 -0.02338158 -0.04071059 -0.046168633 -0.077933304 0.02753334 -0.08674506 0.040073156
0.076728694 -0.039464258 -0.022819746 0.021470018 -0.086358964 0.07952213 0.013223793 -0.058357205
-0.0836248 -0.03830224 -0.03114988 0.050841726 0.08241797 -0.024047788 0.0004517521 0.03519188
0.031764597 0.08639651 -0.021478575 -0.08951891 -0.00077471195 -0.06649721 -0.04291214 -0.09373437
-0.043765754 -0.00776071 0.004749042 0.009757758 -0.07827714 -0.033858173 -0.055945817 -0.067588195
00000000: 911b 813c b904 023d c7bd a43d ef0b 85bd
00000010: 1a17 2d3c d5ac 9fbb 7700 5ebd 239d 843d
00000020: a6bd b0bc de58 99bd 732b 0239 4496 323b
00000030: 43c8 b43c f129 87bd cb08 7a3d 1bde d63c
00000040: 7ab2 7bbd 76cf 20bd 0591 de3c 82fb 6cbd
00000050: 5683 a9bd b255 453c 6de7 633d 4d60 9d3b
00000060: 4bd7 1d3d f199 a2bd 79bd 673d 6a3e 4dbd
00000070: 3a82 dfbc ba9b 03bd 54b8 823d 5b09 b0bd
00000080: 558f 353c ebd4 513d ccc1 10bd fd3b 0c3d
00000090: a806 f13c 5ec4 833d b80a 5a3d 2674 71bd
000000a0: 2c8e a93d e812 b3bd 35ef b6bd 5b63 91bd
000000b0: eaac 9fbd f13e 15bd 89f3 59bd bbe8 3bbc
000000c0: ffaa 98bd 7796 e4bb af29 1b3d 4e44 833d
000000d0: fc93 8d3d a425 b13d 8599 08bd 5d76 1cbd
000000e0: 2e80 7fbd ead6 ad3d a7c7 51bd bb6a 823b
000000f0: 083f a3bd 3fc6 7a3c e055 12bd fe43 f33c
00000100: 0b8e 6fbd 0bc5 41bc 45d9 3abd 21df 8cbd
00000110: 3b6e 39bd 73c8 963c f3a5 ae3b b465 17bd
00000120: 2042 8dbd 1816 3a3d 8247 a23d 74d2 e8bc
00000130: a643 153d 4545 b03d c744 d8bc 72a1 423d
00000140: cc46 41bd 60f3 d8bb 7b26 ac3d d70a a2bd
00000150: 4c95 87bd 243f 88bc 2520 54bd 7388 953d
00000160: f9b1 3fbd e3ae 7c3d ed10 ac3d 67e7 84bd
00000170: 04ce 083d 0fc0 9cbd c2a0 f23a 66ba 97bd
00000180: a56c 8e3d 3e75 89bd d766 44bd c721 bf3d
00000190: 3b7b 1fbd ae76 febc 1cbf 57bd c52d aabd
000001a0: bb30 84bc 2095 5f3d ec56 21bc ddc4 0dbd
000001b0: 93aa c9bc d8b9 893d e417 6e3d 9fae 5dbd
000001c0: a968 15bd c31e 98bd 18ab 56bd 5bd5 4d3d
000001d0: 86bd 1abc 49e3 70bd 6d7c 733d d211 94bd
000001e0: a0c3 07bd cf10 983d deb0 00bd 43bf acbc
000001f0: 923b bc3d 44df f7bc e6b3 be3b a57e 73bd
00000200: cdbe 813d f41b a63c e777 233d b2f9 bdbc
00000210: f171 63bd 4298 a13d b37d 67bd a1b7 d2bb
00000220: 2049 503d 1e13 233d 07ef a83c f289 893a
00000230: 6432 04bd 72a1 683d 19df 233d 597b 10bd
00000240: 2c19 8b3d 0eb1 e83c aab2 a43d cb0d 90bc
00000250: f839 a8ba ca0d f43c 887b 573c d927 aebd
00000260: 2100 81bc 4c17 703d 0609 723c 8c87 80bd
00000270: 29b2 9c3c db8f 7ebd 6df1 a73d 6ecb 823d
00000280: 6f29 78bd 330a a9bd 6b18 dbbc 1c40 0e3d
00000290: 8a07 b4bd 527f 00bc f3ff 763d 26bc 04bd
000002a0: b356 0a3d 677a 793d b5e6 903d 8bab a13d
000002b0: 23f3 a93d e953 9cbd 0bbc 143d 4af1 aabd
000002c0: 1dcc b43c 298e 88bd 9800 433d 1dc5 76bc
000002d0: 41e1 0ebd 7038 b23d ca6c 3d3d 8534 853d
000002e0: d707 d23c 1be4 9b3b fb45 703d 08d6 d23c
000002f0: 5f85 ef3c 9589 ce3c f79f 4a3c 154d 75bd
00000300: c61c 7ebd 3fdd ae3b 7c0c 283d 12fd 8abd
00000310: 71cf 4e3d 60d8 403d 3a39 a8bd 4f6b 29bd
00000320: 3735 36bd d61a 643d 9bd3 bebd d155 94bc
00000330: a0c9 693d 74ea 3dbd ab28 61bd a973 f73c
00000340: b068 ff3c a1b7 5b3d 46c1 86bd 08ff 8a3c
00000350: 9683 bb3c 2171 7fbd 5139 8b3d e50f 533c
00000360: 684d 633d ba8a bfbc 26c0 26bd 521b 3dbd
00000370: 7f9b 9fbd 998d e13c 65a7 b1bd c023 243d
00000380: ef23 9d3d 46a5 21bd 7af0 babc e4e1 af3c
00000390: f8dc b0bd 80dc a23d 9ca8 583c f707 6fbd
000003a0: 7b43 abbd cfe2 1cbd 082e ffbc 6a3f 503d
000003b0: c1ca a83d deff c4bc 24d9 ec39 5c25 103d
000003c0: 981b 023d a7f0 b03d d6f3 afbc b155 b7bd
000003d0: 0a16 4bba b02f 88bd a4c4 2fbd cef7 bfbd
000003e0: b843 33bd 8e4d febb da9d 9b3b 01df 1f3c
000003f0: c44f a0bd deae 0abd 7127 65bd ae6b 8abd

action_head.bias f4 [5]
-0.012004934 -0.0015673861 0.07979564 0.077589534 0.014436242
00000000: 58b0 44bc c070 cdba e66b a33d 43e7 9e3d
00000010: fd85 6c3c

value_head.weight f4 [1, 128]
0.054538272 -0.07654149 0.033812992 -0.033438567 -0.021387832 -0.057185184 -0.0060120253 -0.05076633
-0.030302137 0.020208687 0.049453694 -0.030702818 0.082326636 -0.042337053 -0.044259727 -0.02241105
0.0054171276 -0.047175046 -0.015430734 0.06972812 0.04923605 -0.035082202 0.050632734 0.058599047
-0.031221518 0.0014374921 0.020776208 0.0456341 0.062535085 0.01385251 -0.02806253 -0.030947663
0.014826389 0.034975283 0.04489981 0.08447698 0.052164268 0.020921374 -0.012321161 0.02839253
0.020852469 -0.08753608 0.036986895 -0.0605764 -0.028553013 -0.038672533 -0.051370982 -0.071800396
0.06813102 0.009403728 -0.06992718 -0.078481905 -0.031144371 0.0072512035 0.0048937825 0.05127726
0.01834114 0.042724553 0.079939626 0.02158045 -0.069156945 -0.003788835 -0.016174613 0.024230326
-0.0122247245 -0.056103192 -0.08257486 -0.014496404 0.059813384 -0.039725628 0.027052388 0.072990894
0.07382531 0.08286011 -0.04867274 0.08286202 0.06896636 -0.033670302 -0.0527753 0.006221217
-0.06327301 -0.026728727 -0.071395814 0.056433618 0.00118265 -0.07232235 0.0643364 0.039835535
-0.0060726786 0.043964263 -0.025848087 -0.01231459 0.011483218 0.06947195 -0.053774964 0.06879637
-0.05732792 -0.05427943 -0.06041093 0.02182755 -0.067224085 0.00414734 0.07425593 0.06052912
0.045792002 -0.061523885 0.06152548 0.033412296 -0.042008284 -0.066374764 0.034217358 0.0040031746
0.06229973 0.07642563 0.06131368 -0.032611765 -0.08715209 -0.050663512 -0.073515385 -0.063750945
0.01725928 0.060884 -0.0119920075 0.011802254 -0.058598634 0.07946008 0.061270252 -0.08309792
00000000: 8663 5f3d c9c1 9cbd 7e7f 0a3d e1f6 08bd
00000010: 8935 afbc 033b 6abd 8600 c5bb 5bf0 4fbd
00000020: 303c f8bc b08c a53c f58f 4a3d 7a84 fbbc
00000030: de9a a83d 9e69 2dbd b049 35bd 6197 b7bc
00000040: 2982 b13b 9f3a 41bd 30d1 7cbc 9ecd 8e3d
00000050: beab 493d 5bb2 0fbd 4564 4f3d 8e05 703d
00000060: 45c4 ffbc 3b6a bc3a de32 aa3c d2ea 3a3d
00000070: 6512 803d a3f5 623c 64e3 e5bc f485 fdbc
00000080: 62ea 723c 3e42 0f3d dde8 373d 4402 ad3d
00000090: 33aa 553d 4d63 ab3c b2de 49bc 7397 e83c
000000a0: ccd2 aa3c 1e46 b3bd 927f 173d f61e 78bd
000000b0: 02e8 e9bc 1767 1ebd 616a 52bd 160c 93bd
000000c0: 4788 8b3d 1812 1a3c fb35 8fbd 1fbb a0bd
000000d0: 7b22 ffbc 819b ed3b 065c a03b 1b08 523d
000000e0: 2940 963c f1ff 2e3d 63b7 a33d 7cc9 b03c
000000f0: 28a2 8dbd 1a4e 78bb 9f80 84bc ad7e c63c
00000100: 364a 48bc 76cc 65bd 021d a9bd 5382 6dbc
00000110: e1fe 743d 57b7 22bd f89c dd3c 407c 953d
00000120: b931 973d 90b2 a93d 115d 47bd 90b3 a93d
00000130: 3c3e 8d3d dfe9 09bd ea2a 58bd 5adb cb3b
00000140: 4895 81bd 34f6 dabc f837 92bd f026 673d
00000150: 2603 9b3a be1d 94bd cdc2 833d 962a 233d
00000160: 52fd c6bb df13 343d 5ebf d3bc 22c3 49bc
00000170: 1b24 3c3c 4f47 8e3d 2343 5cbd 1ce5 8c3d
00000180: aed0 6abd 1c54 5ebd 7471 77bd b1cf b23c
00000190: c8ac 89bd 69e6 873b 7e13 983d 62ed 773d
000001a0: 6590 3b3d 7800 7cbd 2402 7c3d 55db 083d
000001b0: e110 2cbd 7eef 87bd 8027 0c3d 102d 833b
000001c0: 002e 7f3d 0a85 9c3d 0e24 7b3d ea93 05bd
000001d0: cc7c b2bd 8b84 4fbd 3c8f 96bd db8f 82bd
000001e0: 5563 8d3c 8061 793d 207a 44bc 3e5e 413c
000001f0: 1f05 70bd f7bb a23d 84f6 7a3d 3e2f aabd
